src/cheb_conv.pt (torch, 200867 bytes, 21 tensors)

conv1.bias f4 [64]
0	0x3b50ecd1	0.0031879435
1	0xbc160014	-0.009155292
2	0x3bab667c	0.005230723
3	0xbc076518	-0.008263849
4	0x3bf2a24a	0.0074046003
5	0x3bdd7832	0.006758713
6	0xbb80d137	-0.0039311904
7	0x3b60ddd5	0.003431191
8	0x3bf5c888	0.007500712
9	0x39c1774f	0.0003690072
10	0x00000000	0.0
11	0xbbfef39c	-0.0077805053
12	0x3c152652	0.009103375
13	0xbb962ed9	-0.0045832214
14	0xbb4cad2d	-0.003123115
15	0x3a24d9fe	0.0006288587
16	0x3b1e3731	0.0024141783
17	0xb9cee148	-0.0003945923
18	0x3b868421	0.0041051065
19	0x3c1811ec	0.009281617
20	0xb9fcf5fc	-0.00048248458
21	0xbb1e8e24	-0.002419361
22	0x3b3ac7cd	0.0028500438
23	0x3ac0b1ff	0.0014701484
24	0x3b81760c	0.00395084
25	0x3bfa1527	0.007631916
26	0x3b2b0300	0.0026094317
27	0xbb94c241	-0.0045397584
28	0x3c4bb143	0.012432399
29	0x3b702122	0.0036640842
30	0x3c1b89b9	0.009493285
31	0xbc4a2638	-0.012338214
32	0xbc1e9226	-0.009678399
33	0xbb323042	-0.0027189408
34	0x3b039e34	0.002008331
35	0x3b9db8ac	0.0048132744
36	0x3bc42f37	0.0059870738
37	0xbc01d6d5	-0.007924755
38	0x3c06dc15	0.008231183
39	0xbbbc5886	-0.0057478575
40	0xbaaeb6de	-0.0013329645
41	0xbb000cd0	-0.0019538887
42	0xbb2e6f7e	-0.0026616747
43	0x3b021def	0.0019854268
44	0xbb249b07	-0.0025116818
45	0xb9f4bd69	-0.00046680428
46	0xbbe615cc	-0.0070216414
47	0x3bb785f7	0.0056006867
48	0x3b2e14fd	0.0026562803
49	0xbba32534	-0.0049788
50	0xbbb3528a	-0.005472486
51	0x3a1a7e07	0.00058934133
52	0x3b3ed1cf	0.0029116755
53	0x3a8f2764	0.0010921774
54	0xbb36891b	-0.0027852717
55	0xbb1507b0	-0.0022740178
56	0x3c08d0c2	0.008350553
57	0x38dcb926	0.00010524904
58	0x3b2399a4	0.0024963403
59	0xbb3b1b9a	-0.0028550387
60	0x3be5a015	0.0070076087
61	0x3c38f1c1	0.011288107
62	0xbbafa346	-0.00536004
63	0x3b5dcbe6	0.0033843457

conv1.lins.0.weight f4 [64, 10]
0	0xbdcc9b72	-0.09990586
1	0xbd4320ff	-0.04763889
2	0xbe6233fc	-0.22090143
3	0xbd64b699	-0.0558382
4	0xbe739413	-0.23786955
5	0x3e2526d1	0.16128089
6	0x3cfa81a1	0.03057939
7	0xbe720da6	-0.23638019
8	0xbe8ac7ee	-0.2710566
9	0x3e29c1e5	0.16577871
10	0xbd3a246e	-0.0454449
11	0x3e78158d	0.24226971
12	0x3d0c4aa8	0.034250885
13	0xbc9e913b	-0.01935636
14	0x3df99f33	0.12188568
15	0x3d57fc1b	0.05273066
16	0xbe0f1356	-0.1397222
17	0xbe8f1e09	-0.27952603
18	0x3da1002a	0.078613594
19	0x3defe3c3	0.11713364
20	0x3e100ca4	0.14067322
21	0x3dd68630	0.10474813
22	0xbe05bd4a	-0.1306049
23	0x3de52b92	0.11189951
24	0x3d253e84	0.040342823
25	0x3e82e193	0.25562724
26	0xbe150ec5	-0.14556415
27	0xbd8ebb4b	-0.06969317
28	0xbe869650	-0.26286554
29	0x3d9009fb	0.070331536
30	0xbdee5df9	-0.116390176
31	0xbe8466ce	-0.25859684
32	0xbd71ebd6	-0.0590628
33	0x3e82cdcd	0.2554764
34	0xbe2416b1	-0.16024281
35	0xbd1695d3	-0.036763977
36	0x3c0ed0fa	0.008716816
37	0x3e62ecd6	0.22160658
38	0x3e812399	0.2522247
39	0xbe1c876b	-0.15286033
40	0xbe16582b	-0.14682071
41	0xbe20636c	-0.15662926
42	0x3dd4ff69	0.10400278
43	0x3ccc8cf0	0.024969548
44	0xbcd730c5	-0.026268372
45	0x3db69373	0.089148425
46	0x3d774fb4	0.060378745
47	0xbe0f28ed	-0.13980456
48	0xbe1a5be8	-0.15074122
49	0x3e0b04bd	0.13576026
50	0x3de94cee	0.11391626
51	0xbe07145f	-0.13191365
52	0x3e360f11	0.17779185
53	0xbc377bd6	-0.011198958
54	0xbe7ea9ce	-0.24869463
55	0xbe8059f1	-0.2506862
56	0x3e8b315d	0.271861
57	0xbe1c2d38	-0.15251625
58	0xbccc54a3	-0.024942702
59	0xbe14230d	-0.14466496
60	0x3e1341a5	0.1438051
61	0x3dabefcc	0.08395347
62	0x3ceb5f3e	0.028731938
63	0xbe54b9de	-0.20774028
64	0xbd38d6b6	-0.04512664
65	0x3e754f36	0.23955998
66	0x3e32d64e	0.17464563
67	0xbe52f2f3	-0.2060049
68	0xbd54e2d0	-0.051974118
69	0xbe59c054	-0.21264774
70	0xbcdaa190	-0.026688367
71	0xbea73933	-0.32660827
72	0xbe6f9c9d	-0.23399587
73	0xbddfd5fe	-0.10929488
74	0xbe37e238	-0.1795739
75	0xbde48460	-0.11158061
76	0xbced98a0	-0.029003441
77	0xbd48aab4	-0.04899092
78	0x3dc47bd7	0.09593933
79	0x3e081524	0.13289315
80	0xbe64fce5	-0.22362097
81	0xbdd6daba	-0.104909375
82	0x3e057230	0.1303184
83	0x3a8a1527	0.0010534868
84	0xbe841159	-0.25794485
85	0xbdcee715	-0.10102669
86	0x3d8a0e67	0.06741028
87	0x3e36ffd7	0.17871033
88	0x3d857243	0.06515934
89	0xbd374b3e	-0.04474949
90	0xbc932119	-0.017960118
91	0xbe75a2c3	-0.2398787
92	0x3e63394e	0.22189829
93	0xbe269a9c	-0.16269916
94	0x3b635456	0.003468772
95	0x3e916aae	0.28401703
96	0xba4c57e0	-0.0007795077
97	0xbe8ef234	-0.2791916
98	0x3e5b7367	0.21430741
99	0xbe03b0e0	-0.12860441
100	0xbe8fa80e	-0.28057903
101	0x3c393ac0	0.011305511
102	0xbe0ee943	-0.1395617
103	0xbdf7032c	-0.12061152
104	0x3d8e8d28	0.06960517
105	0x3e6163a2	0.22010663
106	0x3da9b54c	0.08286533
107	0xbd9a5e6a	-0.07537539
108	0x3d32f460	0.043690085
109	0x3e89f707	0.2694628
110	0xbb976bb8	-0.0046209954
111	0x3d366f72	0.044539876
112	0xbc391da9	-0.011298575
113	0xbe35ae35	-0.17742236
114	0x3da0a93a	0.078447774
115	0x3e68d428	0.22737181
116	0xbc0161ef	-0.007896884
117	0xbcb2c650	-0.021823078
118	0x3e7c127a	0.24616423
119	0xbd9fb4c8	-0.07798153
120	0xbe8c53f7	-0.2740781
121	0xbd0c4317	-0.03424367
122	0x3c87abee	0.016561475
123	0x3e3a1c9c	0.18174976
124	0x3e595cd0	0.21226811
125	0xbe8a0d50	-0.26963282
126	0xbdccc709	-0.099989004
127	0x3e264dc9	0.1624061
128	0xbdeb3b39	-0.11485905
129	0xbe1009fb	-0.14066307
130	0x3e2da7e5	0.16958578
131	0xbe49bbe0	-0.19700575
132	0x3e3cd45a	0.1844038
133	0xbe396b59	-0.18107356
134	0x3e609a9f	0.21933983
135	0xbe39032c	-0.18067616
136	0x3e487b6b	0.1957833
137	0xbdcd512a	-0.100252464
138	0xbcc5e69f	-0.02415782
139	0x3e4afcc6	0.19822988
140	0x3daba355	0.083807625
141	0xbde55db3	-0.11199512
142	0x3d081b6c	0.033229277
143	0x3dd75274	0.105137736
144	0x3d96aaae	0.07356773
145	0xbe22225b	-0.15833418
146	0x3dcee592	0.10102381
147	0xbe3c8785	-0.18411072
148	0xbe5ee27b	-0.21766083
149	0x3d840edc	0.06448147
150	0xbddf26b9	-0.10896058
151	0x3e8939e3	0.26801977
152	0x3e4ed109	0.20196928
153	0xbe2cfe95	-0.1689399
154	0xbdadf696	-0.08494298
155	0x3dee5982	0.11638166
156	0xbdbdb585	-0.09263138
157	0xbe860ce0	-0.26181698
158	0xbe53cd03	-0.20683675
159	0xbe2e7584	-0.17037016
160	0xbe2b3145	-0.16718014
161	0x3e6f335d	0.23359437
162	0x3dc3acc7	0.09554439
163	0xbb0beef1	-0.0021352137
164	0x3dfca882	0.12336828
165	0xbdd1cee9	-0.10244543
166	0x3d3678ba	0.044548728
167	0x3e4e1c21	0.20127918
168	0xbe470a23	-0.1943746
169	0xbd0bf6d6	-0.034170948
170	0xbe4c5763	-0.1995521
171	0x3d67de0f	0.056608256
172	0xbe5cd07a	-0.21563902
173	0xbdc3e2a0	-0.0956471
174	0xbdd84805	-0.10560612
175	0xbd854464	-0.06507185
176	0xbdca943a	-0.09891553
177	0x3deefb7f	0.11669063
178	0xbd59664c	-0.053076074
179	0xbe7c0fca	-0.24615398
180	0xbe7d9cc3	-0.24766831
181	0x3e5d50a2	0.2161279
182	0xbe8b1206	-0.27162188
183	0xbe2735d5	-0.16329129
184	0x3e5460f0	0.20740104
185	0xbe974459	-0.29544333
186	0x3e5cbad1	0.2155564
187	0x3e70e575	0.23525031
188	0x3e35db99	0.17759551
189	0x3d580c22	0.052745946
190	0xbe07bf50	-0.13256574
191	0xbca34765	-0.019931505
192	0xbe0366d0	-0.12832189
193	0x3e63d92a	0.2225081
194	0x3e935869	0.2877839
195	0xbb68c8c4	-0.0035520056
196	0xbe3659db	-0.17807715
197	0x3e02c430	0.12770152
198	0xbdacfff2	-0.08447255
199	0xbe16fb80	-0.14744377
200	0xbe8b94e7	-0.2726204
201	0x3db306d0	0.08741534
202	0xbe85a2d2	-0.26100785
203	0x3e909cd7	0.2824466
204	0x3db91ecf	0.090390794
205	0xbe43c450	-0.19117856
206	0x3e76cae4	0.24100834
207	0xbd544fa0	-0.05183375
208	0x38b0c197	8.428393e-05
209	0x3dc372c3	0.095433734
210	0x3e85db79	0.26144007
211	0xbdbcc3b6	-0.092170164
212	0xbcebcda5	-0.028784582
213	0xbdc43f74	-0.09582415
214	0xbd82a0ed	-0.063783504
215	0xbe01f95b	-0.12692778
216	0x3e005755	0.12533315
217	0x3d4703c4	0.048587576
218	0x3d8e2faf	0.06942689
219	0xbbebe770	-0.0071992204
220	0x3e0d6633	0.13808517
221	0xbe3154e0	-0.17317533
222	0xbda9e741	-0.08296061
223	0xbe761cd5	-0.24034436
224	0xbe32f42c	-0.17475957
225	0x3e0cfb01	0.13767625
226	0xbe500498	-0.20314252
227	0xbdb47393	-0.088111065
228	0xbe553011	-0.20819117
229	0x3e473cf2	0.19456843
230	0x3d06b0ac	0.03288333
231	0x3d1cd892	0.038292475
232	0xbe527504	-0.2055245
233	0x3e61c49b	0.22047655
234	0xbd04c433	-0.032413673
235	0x3e62fb1b	0.22166102
236	0xbe8b3326	-0.2718746
237	0x3e683b1d	0.226788
238	0x3ddb2f76	0.10702412
239	0x3e331261	0.1748748
240	0x3ddf7159	0.10910291
241	0x3e45fce9	0.19334759
242	0xbe0dd13b	-0.13849346
243	0x3d724d1b	0.059155565
244	0xbe03b7fa	-0.1286315
245	0xbcdde9c4	-0.027089007
246	0xbd5a1242	-0.05324007
247	0xbe800341	-0.25002483
248	0x3e2423c9	0.16029276
249	0x3e432d2d	0.19060202
250	0x3be5c891	0.007012435
251	0x3e47dc67	0.1951767
252	0x3e30ca1f	0.17264603
253	0x3e0ba565	0.13637312
254	0xbdd60e07	-0.10451894
255	0x3c8a0b22	0.016851012

conv1.lins.1.weight f4 [64, 10]
0	0xbe2f6892	-0.17129734
1	0x3da1346a	0.07871325
2	0xbe8cef05	-0.27526107
3	0x3d686fad	0.056747127
4	0x3e87daa1	0.26533988
5	0x3a2dae51	0.00066254014
6	0x3d5e98bb	0.054344874
7	0x3e4ba395	0.1988662
8	0x3e156389	0.14588751
9	0x3e7cf3b9	0.24702348
10	0xbe316229	-0.17322601
11	0xbe74e026	-0.23913631
12	0xbd7c38e1	-0.06157768
13	0xbe36b1ec	-0.1784131
14	0xbd96dab8	-0.07365936
15	0x3e1f3eea	0.15551344
16	0xbd89f3b6	-0.06735937
17	0x3d53e2fb	0.051730137
18	0xbe317d33	-0.17332916
19	0xbdecc537	-0.11561053
20	0x3e5d0fc4	0.21588045
21	0x3e4ca40f	0.19984458
22	0xbe7f5b6b	-0.24937217
23	0x3e2ba611	0.16762568
24	0xbe66ed62	-0.22551492
25	0x3e7b3f1c	0.24535793
26	0x3e05867c	0.13039583
27	0x3e2c2e25	0.16814478
28	0x3df8218e	0.12115775
29	0x3e847707	0.2587206
30	0xbe8c4477	-0.27395985
31	0x3d8e20e0	0.06939864
32	0xbe133f45	-0.14379604
33	0xbe81dccb	-0.25363764
34	0xbe7620a8	-0.24035895
35	0xbdefcb01	-0.11708642
36	0xbd5fa506	-0.054600738
37	0x3e59d5e3	0.21272998
38	0x3d9c7601	0.07639695
39	0x3d41eccd	0.04734497
40	0x3e5f99fe	0.21836087
41	0x3e95a806	0.29229754
42	0x3dd75fd9	0.10516328
43	0xbd908be7	-0.07057934
44	0x3d8147c9	0.0631252
45	0xbd9b84c2	-0.07593681
46	0xbdad1f43	-0.08453228
47	0x3d652295	0.055941183
48	0xbe8c69b8	-0.27424407
49	0xbe251ae6	-0.16123542
50	0x3bb33b31	0.0054697026
51	0xbdf8945b	-0.121376716
52	0x3cdac009	0.026702898
53	0xbe4c94a0	-0.19978571
54	0xbe9239b5	-0.28559652
55	0xbc3cd81f	-0.011526137
56	0x3e07e107	0.13269435
57	0x3d1ef393	0.03880651
58	0xbe98aa0a	-0.2981723
59	0x3e6d5cd1	0.23179938
60	0xbcd8a186	-0.026444208
61	0x3e6ef207	0.23334514
62	0x3e3cb344	0.1842776
63	0x3e342a71	0.17594315
64	0x3e4c96d2	0.19979408
65	0x3d45e412	0.048313208
66	0xbd242596	-0.040074907
67	0x3e262e7f	0.16228674
68	0x3e75c4f9	0.2400092
69	0x3e7e087a	0.24807921
70	0xbd4f7433	-0.050647926
71	0x3e3c98b8	0.18417633
72	0x3e82e13e	0.2556247
73	0xbe33affe	-0.17547604
74	0x3e7ad27c	0.24494356
75	0x3e3388cc	0.17532653
76	0xbe36aaf7	-0.17838655
77	0x3e11daf8	0.14243686
78	0xbe73a458	-0.23793161
79	0xbb1f3800	-0.0024294853
80	0xbdf5334b	-0.11972674
81	0xbe1119d8	-0.14170015
82	0xbe28ad21	-0.16472293
83	0xbe32aa3b	-0.1744775
84	0x3e5db749	0.21651949
85	0x3dfb7d83	0.12279799
86	0xbc8749b5	-0.016514638
87	0xbdfb4fa8	-0.122710526
88	0xbe80acee	-0.25131935
89	0xbe32b356	-0.17451224
90	0x3d0a6a4f	0.03379279
91	0xbe0413b7	-0.12898146
92	0xbcd5a1fe	-0.02607822
93	0xbe1909b8	-0.14945114
94	0x3df1db8b	0.118094526
95	0xbd6b17f8	-0.057395905
96	0xbe8c409e	-0.2739305
97	0x3e23ba3a	0.15989009
98	0x3da2fa4b	0.07957896
99	0x3e024d9e	0.12724921
100	0x3dbf77a8	0.093489945
101	0x3e544620	0.20729876
102	0xbe376568	-0.17909777
103	0xbe792eb2	-0.24334219
104	0x3dd1e23c	0.10248229
105	0x3e538c66	0.20659027
106	0x3e08f780	0.13375664
107	0xbe3abc2d	-0.18235846
108	0x3db4f0bc	0.08834979
109	0x3d99d830	0.075119376
110	0x3e3bfdfb	0.18358605
111	0x3c9e35de	0.019312795
112	0x3df8d33d	0.121496655
113	0xbd5a5390	-0.053302348
114	0xbc12676d	-0.008935791
115	0x3cc08f29	0.023505764
116	0x3e20880d	0.15676899
117	0xbcc7ffed	-0.024414027
118	0xbe0317d4	-0.12802058
119	0x3e34e99b	0.17667238
120	0xbe8d6a6f	-0.27620265
121	0xbd651070	-0.05592388
122	0xbdd859dd	-0.10564015
123	0xbe5bac01	-0.21452333
124	0x3e3d05e6	0.18459281
125	0x3d7cc547	0.061711576
126	0xbc8ab127	-0.016930176
127	0xbae251e8	-0.0017266842
128	0xbe52ea96	-0.205973
129	0xbcf566e2	-0.029956285
130	0x3d068471	0.03284115
131	0x3e108340	0.14112568
132	0xbd955bfe	-0.07292937
133	0xbe8b9856	-0.2726466
134	0xbe340797	-0.1758102
135	0x3e80c0bd	0.25147048
136	0xbd214751	-0.039374653
137	0x3e202139	0.15637673
138	0xbe89dacd	-0.26924744
139	0x3e17cb70	0.14823699
140	0x3d234abb	0.03986619
141	0xbe87725a	-0.2645443
142	0x3dd39b73	0.10332384
143	0x3e8e8983	0.27839288
144	0x3e23c708	0.15993893
145	0x3e643d30	0.22288966
146	0x3e5ad5b6	0.21370587
147	0xbe044ea7	-0.12920628
148	0x3d04f1ce	0.032457165
149	0x3e2c5315	0.16828568
150	0xbe6c10de	-0.2305331
151	0xbd558cc2	-0.05213619
152	0x3e3ad036	0.18243489
153	0xbda4f3ab	-0.080542885
154	0x3e1b4571	0.15163209
155	0xbe8cb9f4	-0.2748562
156	0xbd86ff09	-0.06591613
157	0xbd6e9de6	-0.058256052
158	0x3e3f08bd	0.18655677
159	0x3e5f1c23	0.21788077
160	0xbd259ef8	-0.040434808
161	0xbe53ea7c	-0.20694917
162	0x3e91266a	0.2834962
163	0xbd57af07	-0.052657153
164	0x3e57e93a	0.21085063
165	0x3c4549b4	0.012041498
166	0xbd773362	-0.060351737
167	0x3e8e4b7b	0.27791962
168	0xbe567868	-0.20944369
169	0x3dd93036	0.10604899
170	0x3e831374	0.2560078
171	0xbd2d5aee	-0.042323045
172	0xbccc7e5a	-0.024962593
173	0xbe68973d	-0.22713943
174	0xbccddee2	-0.025130693
175	0xbe300ac2	-0.17191604
176	0xbe5c2b69	-0.21500935
177	0xbda63fae	-0.08117615
178	0x3d52eb9c	0.051494226
179	0x3d054aa7	0.032541897
180	0xbd8d500b	-0.069000326
181	0xbde16239	-0.110050626
182	0x3d5f1aea	0.054469027
183	0xbe5e0d73	-0.21684818
184	0x3e60a264	0.21936947
185	0x3e696f73	0.22796421
186	0x3d193287	0.037401702
187	0xbc864697	-0.016391082
188	0xbe83233e	-0.25612825
189	0xbe35dbe7	-0.17759667
190	0xbdf0c07b	-0.11755463
191	0xbdbc9963	-0.09208944
192	0xbe5ef712	-0.21773937
193	0xbe384ae7	-0.17997323
194	0x3dd3a591	0.10334314
195	0xbe474438	-0.19459617
196	0x3cdd3fe1	0.027007999
197	0x3da7c70a	0.081922606
198	0xbe8dd7d7	-0.27703735
199	0x3ddc2c0f	0.10750591
200	0x3d164ad1	0.036692444
201	0xbd9e7353	-0.0773684
202	0xbe879297	-0.26479027
203	0xbe469ee5	-0.19396551
204	0xbdba663f	-0.09101533
205	0xbd83d720	-0.06437516
206	0xbde3e55d	-0.11127732
207	0x3ddd16bd	0.107953526
208	0xbd0e47ec	-0.03473656
209	0xbe60dee4	-0.21960026
210	0x3df1a64f	0.11799299
211	0x3ddc5d84	0.10760024
212	0xbe74e99c	-0.2391724
213	0x3e0586cf	0.13039707
214	0xbd80a91e	-0.062822565
215	0xbe32e0d9	-0.17468585
216	0xbe881eea	-0.26586086
217	0xbba21cfe	-0.004947304
218	0xbe2992d0	-0.16559911
219	0x3e4a9e9e	0.1978707
220	0xbdf7344e	-0.12070523
221	0x3d502b02	0.050822265
222	0x3e30a09b	0.17248766
223	0x3e5663bb	0.20936482
224	0xbe5b7db1	-0.21434666
225	0xbd6d5b01	-0.057948116
226	0xbe864383	-0.26223382
227	0x3c9b159a	0.018931199
228	0x3e0e0887	0.1387044
229	0x3e78aa5b	0.24283735
230	0x3e5fc4b4	0.2185238
231	0xbe612472	-0.21986559
232	0x3e0e83ee	0.13917515
233	0xbe3713bc	-0.17878622
234	0x3a182dc6	0.00058051606
235	0x3e84ace9	0.2591317
236	0x3e87ae9e	0.2650041
237	0xbc1d73d0	-0.009610131
238	0xbde0324f	-0.109470956
239	0x3e09e7ee	0.1346738
240	0x3da74dc4	0.081691295
241	0x3dd65e8c	0.10467252
242	0x3c4fc882	0.012682082
243	0xbc505bee	-0.01271723
244	0x3e88765b	0.26652798
245	0xbe4c9d5e	-0.19981906
246	0xbe4563fe	-0.19276425
247	0xbe5b7531	-0.21431424
248	0xbe3a9130	-0.18219447
249	0xbc23c3cf	-0.009995415
250	0x3c155cbe	0.00911635
251	0xbda8799e	-0.08226322
252	0x3e73340e	0.23750326
253	0x3e2a6214	0.16638976
254	0x3e59aee7	0.21258126
255	0x3e3796c4	0.17928606

conv1.lins.2.weight f4 [64, 10]
0	0x3e91f760	0.28509045
1	0xbe53b4fe	-0.20674512
2	0x3dae2d2a	0.08504708
3	0xbe5ae8f1	-0.21377923
4	0x3dfc29a6	0.12312631
5	0xbc242ac8	-0.0100199655
6	0x3e6b5846	0.22982892
7	0xbe269f40	-0.16271687
8	0x3e890d4d	0.2676796
9	0xbdc2f2b1	-0.09518946
10	0x3e2da73b	0.16958325
11	0x3e6b804e	0.22998163
12	0xbd3dd5e6	-0.046346568
13	0x3e7640b9	0.24048127
14	0xbe85ecdf	-0.2615728
15	0xbab9f17f	-0.0014186351
16	0xbd024f60	-0.03181398
17	0xbdf3680b	-0.11885079
18	0x3d8d9341	0.06912852
19	0x3d133cc0	0.035946608
20	0xbe056163	-0.13025431
21	0xbe9ec166	-0.31006926
22	0x3e78ec85	0.24308975
23	0x3e0e772a	0.13912645
24	0xbc046947	-0.008081741
25	0x3e09b9a0	0.13449717
26	0xbd13d674	-0.03609319
27	0xbe3951f1	-0.18097664
28	0xbe316d81	-0.17326929
29	0xbe33f81c	-0.17575115
30	0xbe7e5c02	-0.24839786
31	0x3e905c29	0.28195313
32	0x3e737b10	0.23777413
33	0x3d681a0e	0.056665473
34	0x3e4d8586	0.20070466
35	0x3e63e794	0.22256309
36	0xbe7994b3	-0.2437313
37	0xbcaedd3b	-0.021345725
38	0x3d06f0c9	0.032944474
39	0xbe4a0220	-0.19727373
40	0x3e54a553	0.20766191
41	0xbb4dfe79	-0.0031432195
42	0xbe309845	-0.17245586
43	0x3ca11aaa	0.019666035
44	0xbe6cb668	-0.23116457
45	0x3d4ce45d	0.05002247
46	0x3e62d214	0.22150451
47	0x3d97665a	0.07392569
48	0xbde731e4	-0.11288813
49	0xbe5d5e73	-0.21618061
50	0x3ddccbf1	0.10781086
51	0xbe1208bc	-0.14261144
52	0xbe75fd32	-0.24022368
53	0xbdfbafe0	-0.12289405
54	0xbe659dcc	-0.22423476
55	0x3ccecd95	0.025244514
56	0xbe00c414	-0.12574798
57	0xbce1510d	-0.027504468
58	0x3d4a354d	0.049367238
59	0xbcfce719	-0.030871915
60	0x3e4086a4	0.18801361
61	0xbce71a93	-0.028210914
62	0x3d1a3cc0	0.037655592
63	0xbd19e44a	-0.03757123
64	0xbe5cdb11	-0.21567942
65	0xbdcf1f9e	-0.101134524
66	0x3dd3f8c8	0.10350186
67	0xbe97c49e	-0.29642195
68	0x3e3729bf	0.17887019
69	0x3d6637f3	0.0562057
70	0xbe0ba50a	-0.13637176
71	0x3d17ee61	0.03709257
72	0xbce3cb79	-0.027806984
73	0xbd935749	-0.07194383
74	0xbe6e0e2b	-0.23247592
75	0x3ddaaecd	0.10677872
76	0x3e8aa3cb	0.2707809
77	0x3d8630f1	0.065523036
78	0xbe6ea643	-0.23305611
79	0xbe04bce2	-0.12962678
80	0x3d0665c5	0.0328119
81	0xbdaa3c11	-0.08312238
82	0x3dfc1881	0.12309361
83	0x3de67c39	0.11254162
84	0x3e158dd4	0.14604884
85	0xbe598681	-0.21242715
86	0x3bcf934d	0.0063346983
87	0x3e6d9355	0.23200734
88	0xbe820fbe	-0.25402635
89	0x3d81cfc1	0.06338454
90	0xbe6fc3a5	-0.23414476
91	0xbe4b7f70	-0.19872832
92	0xbe936604	-0.2878877
93	0xbe06bea8	-0.13158667
94	0xbdf0d037	-0.11758464
95	0xbe386b58	-0.18009698
96	0x3d5b769c	0.05357991
97	0xbe494510	-0.19655252
98	0x3e8a36d1	0.26994947
99	0x3dc7ff44	0.09765485
100	0xbe28d0d8	-0.16485918
101	0x3e163e2a	0.14672151
102	0xbe7d1dfd	-0.24718471
103	0xbdc8a7b8	-0.09797615
104	0xbe56708e	-0.20941374
105	0x3b2a4d00	0.0025985837
106	0xbe01cbaa	-0.12675348
107	0xbd9b5320	-0.07584214
108	0xbd54c8d0	-0.051949322
109	0xbb41e400	-0.0029585361
110	0x3dff2f67	0.12460213
111	0xbe242f6c	-0.16033715
112	0x3df530c6	0.119721934
113	0xbdd5cb0b	-0.10439118
114	0x3afd9b19	0.0019348591
115	0xbe366827	-0.17813168
116	0x3e26c93e	0.16287705
117	0x3e860ccc	0.26181638
118	0x3e817d02	0.25290686
119	0xbe5ab251	-0.21357085
120	0xbe661710	-0.22469735
121	0x3dd3ab62	0.10335423
122	0x3e80d338	0.25161147
123	0x3ca59773	0.020213818
124	0x3e0bb181	0.13641931
125	0xbd840b74	-0.06447497
126	0x3e443238	0.19159782
127	0xbc725ca6	-0.014792597
128	0x3e251c55	0.16124089
129	0x3e4d58ba	0.20053378
130	0x3c9ee7cd	0.01939764
131	0xbda77562	-0.08176686
132	0x3e5395e4	0.20662647
133	0xbdce2cd2	-0.100671425
134	0x3e87d255	0.26527658
135	0xbdade9ae	-0.084918365
136	0x3dbb5892	0.09147753
137	0xbbea5e47	-0.007152352
138	0x3e09152c	0.13386983
139	0x3e10a386	0.14124879
140	0x3d973a0e	0.0738412
141	0x3db38138	0.08764881
142	0xbe08bc77	-0.13353144
143	0x3e13e365	0.14442213
144	0x3e4a8b5e	0.19779727
145	0x3e169d6f	0.14708494
146	0xbe3f5799	-0.1868576
147	0xbced32c9	-0.02895488
148	0xbe14ed9e	-0.14543769
149	0xbe8c4882	-0.2739907
150	0x3e7017a0	0.23446512
151	0xbcf23166	-0.02956457
152	0xbdc07b0d	-0.0939847
153	0xbd3449da	-0.044015743
154	0xbdc00d85	-0.09377579
155	0xbe235591	-0.1595061
156	0xbe1735ca	-0.14766613
157	0x3e11e35c	0.14246887
158	0xbdee369f	-0.11631512
159	0xbe4232a9	-0.18964638
160	0xbe2af2d5	-0.16694196
161	0xbe170dcf	-0.14751361
162	0xbd765d38	-0.060147494
163	0xbe32fc94	-0.17479163
164	0xbe8086af	-0.25102755
165	0x3d308b8f	0.043101843
166	0xbe6a1c0b	-0.2286226
167	0x3e187a4d	0.14890404
168	0x3e20d1f0	0.15705085
169	0xbcdc4927	-0.02689035
170	0xbe7ee63d	-0.24892516
171	0x3dd4b35e	0.10385774
172	0xbe4164a8	-0.18886054
173	0xbe326549	-0.1742145
174	0xbc86ffb3	-0.016479349
175	0xbdfde712	-0.12397589
176	0xbd3b93ba	-0.04579518
177	0x3e818c1a	0.25302202
178	0xbd2302b2	-0.039797492
179	0xbda0e188	-0.07855517
180	0xbdf448a7	-0.1192792
181	0xbd3f7fe9	-0.046752844
182	0xbe86a5dc	-0.26298416
183	0x3e2724f8	0.16322696
184	0xbe32af09	-0.17449583
185	0xbda94b43	-0.08266308
186	0x3e1f271d	0.15542264
187	0x3e7f1f6d	0.24914332
188	0x3e471889	0.19442953
189	0x3e85d338	0.2613771
190	0xbdbdaf92	-0.09262003
191	0x3dbc4281	0.09192372
192	0xbe25a18e	-0.1617491
193	0xbe5e4fb4	-0.21710092
194	0x3e50dc21	0.20396473
195	0x3e5b5ce3	0.21422152
196	0x3d0305db	0.031988006
197	0xbe0250d3	-0.12726144
198	0x3bf73ae7	0.0075448635
199	0x3cd59247	0.026070727
200	0xbb88a3d4	-0.0041699205
201	0xba662d15	-0.00087805215
202	0xbe80c9cd	-0.25153962
203	0x3e4be354	0.19910938
204	0xbe0985de	-0.13429973
205	0xbd84a27b	-0.06476303
206	0x3c89a245	0.016801009
207	0xbe572694	-0.2101081
208	0x3d686b0c	0.056742713
209	0x3e622876	0.22085747
210	0xbe79c127	-0.24390088
211	0xbc5287c1	-0.012849749
212	0x3df58e2b	0.11990007
213	0x3da16572	0.07880677
214	0xbcaaa136	-0.020828824
215	0xbe89e9b8	-0.26936126
216	0xbe3ed500	-0.1863594
217	0xbe62e0dc	-0.2215609
218	0xbe095950	-0.13412976
219	0xbdc0db81	-0.09416867
220	0xbdf851af	-0.12124955
221	0xbb7a2bea	-0.0038173147
222	0x3d46be62	0.048521407
223	0x3e4d4ec2	0.20049575
224	0x3e6f07d2	0.23342827
225	0x3e636857	0.22207771
226	0x3e860e8d	0.26182976
227	0xbe4e4e52	-0.20147064
228	0xbe047712	-0.12936047
229	0xbe5132a1	-0.2042947
230	0xbd0ec6eb	-0.03485767
231	0x3e8584bf	0.2607784
232	0x3dd6702b	0.10470613
233	0x3ca93285	0.020653972
234	0xbde670d9	-0.11251993
235	0x3e03aad1	0.1285813
236	0xbe82c56a	-0.2554124
237	0x3ca812b6	0.020516735
238	0x3e2e3ab3	0.1701458
239	0xbca05481	-0.019571545
240	0xbe35112a	-0.17682329
241	0xbe767976	-0.24069771
242	0xbe6e84f2	-0.23292902
243	0x3e0ed84e	0.13949701
244	0xbe69d741	-0.22836019
245	0xbe995f49	-0.2995551
246	0xbe0caa8a	-0.1373693
247	0x3cced981	0.025250198
248	0x3d9f7c9e	0.07787441
249	0xbe414e44	-0.18877512
250	0x3db09fe3	0.08624246
251	0x3db81232	0.089878455
252	0xbdc48d00	-0.09597206
253	0x3d3f21b3	0.046662997
254	0x3d807900	0.06273079
255	0xbd2dc8cf	-0.042427834

conv1.lins.3.weight f4 [64, 10]
0	0xbcf8bae6	-0.030362558
1	0xbe141ab3	-0.1446331
2	0xbc5303b6	-0.012879303
3	0xbe4b7b2d	-0.19871207
4	0xbe058d40	-0.13042164
5	0x3ceafd3c	0.028685205
6	0x3e2335ca	0.15938488
7	0x3e474e98	0.19463575
8	0xbe910364	-0.283229
9	0x3c9369c5	0.01799477
10	0xbe6387e2	-0.22219804
11	0x3d886c3f	0.06661271
12	0xbde003dc	-0.10938236
13	0xbd64025f	-0.055666324
14	0xbd07ad6d	-0.033124376
15	0xbe414765	-0.18874891
16	0x3e3220ca	0.1739532
17	0x3cc6607e	0.024215933
18	0x3bc0a0bf	0.0058785374
19	0x3d8c785b	0.068588935
20	0xbe7ebb72	-0.24876192
21	0xbe67e10b	-0.22644441
22	0x3e03fb24	0.12888771
23	0xbe4d8dce	-0.20073625
24	0xbe24d314	-0.16096145
25	0xbe41d38b	-0.18928353
26	0xbe428588	-0.1899625
27	0xbe5dc92b	-0.2165877
28	0x3e2a45f4	0.16628247
29	0xbbe80397	-0.007080506
30	0xbe8bc2d0	-0.27297068
31	0x3e52a7ba	0.20571795
32	0x3e81c828	0.2534802
33	0x3d46ce5d	0.048536647
34	0xbcdd788b	-0.027035018
35	0xbe60592a	-0.21909013
36	0x3e129715	0.14315446
37	0x3e21e3bd	0.15809532
38	0xbe177349	-0.14790072
39	0xbe841fbf	-0.2580547
40	0xbd9c4f5d	-0.07632325
41	0xbe0127ed	-0.12612887
42	0x3d9172a9	0.07101948
43	0x3e20a5e8	0.15688288
44	0xbe80ee2d	-0.25181714
45	0x3d948f08	0.072538435
46	0xbe4f3dc6	-0.20238408
47	0xbe39cef9	-0.1814536
48	0x3dc3d23d	0.09561584
49	0x3d46ac65	0.048504252
50	0x3e683de8	0.22679865
51	0xbd06d177	-0.032914605
52	0xbd41875a	-0.047248222
53	0xbe411bbf	-0.1885824
54	0x3e8badfc	0.27281177
55	0x3e08fd6d	0.13377924
56	0xbe30fbe6	-0.17283592
57	0xbc8aab9b	-0.016927531
58	0xbdabf0e7	-0.08395558
59	0x3c025c08	0.007956512
60	0xbb903f68	-0.00440209
61	0x3e4b66da	0.19863454
62	0xbe60c8df	-0.21951626
63	0xbd468f9d	-0.048476804
64	0x3dc4fa8e	0.09618102
65	0x3d77da67	0.06051102
66	0xbc70e85b	-0.014703835
67	0xbd9b6596	-0.07587735
68	0xbd35c1be	-0.04437422
69	0xbce76d5e	-0.028250393
70	0x3dc051aa	0.09390576
71	0x3df8756c	0.121317714
72	0x3deae4d1	0.114694245
73	0xbe36a4c3	-0.17836289
74	0x3cb16d5b	0.02165859
75	0x3b7e0edf	0.0038766188
76	0x3db7b1e0	0.08969474
77	0xbdd31b92	-0.10307993
78	0xbe6fabd6	-0.23405394
79	0x3e4c2672	0.1993654
80	0x3cac239f	0.02101308
81	0x3e896183	0.26832208
82	0xbe83d606	-0.25749224
83	0x3e0cc81a	0.13748208
84	0xbe2ee1f7	-0.17078386
85	0xbd40c619	-0.04706392
86	0x3e6dd94e	0.23227426
87	0xbe00537d	-0.12531848
88	0xbdb75a53	-0.08952775
89	0xbe3d972f	-0.18514703
90	0xbe866b53	-0.26253757
91	0x3e5a13e1	0.21296646
92	0xbd94ab4b	-0.07259234
93	0x3d8ddd76	0.06927006
94	0xbc883078	-0.016624674
95	0xbd69c740	-0.057074785
96	0x3ddf8a56	0.10915057
97	0xbe825692	-0.25456673
98	0xbe02e2a9	-0.12781776
99	0x3db70f06	0.08938412
100	0xbd84881e	-0.06471275
101	0x3e824157	0.25440475
102	0xbd928d44	-0.071558505
103	0x3d0c7e78	0.034300297
104	0xbd89c486	-0.06726937
105	0x3e01ad26	0.12663707
106	0xbe79d04e	-0.24395868
107	0x3daa0120	0.08300996
108	0xbdb3e980	-0.08784771
109	0x3e3af800	0.18258667
110	0xbe4c56b5	-0.19954951
111	0x3e143e87	0.14476977
112	0xbe3ef4cd	-0.18648072
113	0xbe29245d	-0.16517778
114	0x3e755456	0.23957953
115	0xbe55824f	-0.2085049
116	0xbd5e8c11	-0.054332796
117	0xbdd80fd4	-0.10549894
118	0xbe80e77c	-0.2517661
119	0xbd90fc97	-0.07079428
120	0x3e396eb6	0.18108639
121	0xbe0bb853	-0.13644533
122	0xbe599108	-0.21246731
123	0xbc85abad	-0.016317213
124	0xbdb2e35e	-0.08734773
125	0xbda61ec2	-0.08111335
126	0x3dfdfd37	0.124018125
127	0xbd9f7975	-0.07786838
128	0xbe607047	-0.2191783
129	0x3e69f090	0.22845674
130	0x3c037c18	0.008025192
131	0xbe8159c1	-0.2526379
132	0x3ddf9657	0.10917347
133	0xbe0e6670	-0.13906264
134	0xbd39f4a9	-0.04539934
135	0x3e82e94d	0.2556862
136	0x3c950848	0.018192425
137	0x3de02fd9	0.10946626
138	0x3d3e7257	0.04649576
139	0xbe868b1b	-0.26278004
140	0x3d9a3ba1	0.075309046
141	0xbe250a28	-0.16117156
142	0xbd18e050	-0.037323296
143	0xbe0383f2	-0.12843302
144	0xbe1ded32	-0.15422514
145	0xbd19611e	-0.037446134
146	0x3d41e2e0	0.047335505
147	0x3e2c2524	0.16811043
148	0xbbec8071	-0.00721746
149	0x3e71fab6	0.23630795
150	0xbd8b376d	-0.06797681
151	0x3e4b51f5	0.19855483
152	0xbc3db388	-0.011578448
153	0xbdde239a	-0.10846634
154	0x3d90ca37	0.070698194
155	0x3de39cb0	0.1111387
156	0xbe39c144	-0.18140131
157	0xbe7dc5fc	-0.24782556
158	0x3e89b49b	0.26895604
159	0xbe6364fc	-0.22206491
160	0xbe8f1fc8	-0.27953935
161	0x3e4fda27	0.20298062
162	0xbe337745	-0.17525966
163	0x3e73fe32	0.23827437
164	0x3d06fbc6	0.032954954
165	0xbe0065c3	-0.12538819
166	0xbc0e38ef	-0.008680566
167	0xbe79f205	-0.2440873
168	0x3e805fd5	0.25073114
169	0x3d4a8197	0.049439993
170	0xbd971fc9	-0.073791094
171	0x3dabc0b1	0.08386362
172	0xbd26778e	-0.04064136
173	0x3e15afd3	0.14617853
174	0xbb715b86	-0.0036828234
175	0x3e7f9500	0.24959183
176	0x3dd76b36	0.10518496
177	0xbdfd4847	-0.123673014
178	0xbe90b121	-0.2826014
179	0x3df2fc4f	0.1186453
180	0xbd1cea39	-0.03830931
181	0x3e314410	0.1731112
182	0x3c4f2ff9	0.012645715
183	0x3ddbfa9d	0.1074116
184	0xbe04cb55	-0.1296819
185	0x3e85ab58	0.26107287
186	0x3e8149f4	0.25251734
187	0xbdb2a30d	-0.08722506
188	0x3d5f3740	0.05449605
189	0xbe6c790a	-0.23093048
190	0xbddf4899	-0.10902519
191	0x3d4c0d69	0.049817476
192	0xbe3ed504	-0.18635947
193	0x3e84949b	0.25894627
194	0xbd99b0dc	-0.075044364
195	0xbe6789d9	-0.22611178
196	0xbda7925f	-0.08182215
197	0x3e7fb102	0.24969867
198	0x3dc131b2	0.09433307
199	0xbe0e1038	-0.13873374
200	0xbe821f17	-0.25414345
201	0xbe7548b3	-0.23953514
202	0xbe0f6881	-0.14004709
203	0x3e261e00	0.16222382
204	0xbe8fbabb	-0.28072152
205	0x39726bcc	0.00023119076
206	0x3d0140d2	0.031555958
207	0x3deb8f80	0.1150198
208	0xbe8debb8	-0.27718902
209	0x3b3840d1	0.0028114805
210	0xbe0cfcac	-0.13768262
211	0xbe86349c	-0.26212013
212	0x3e054be0	0.13017225
213	0xbe1557e6	-0.14584312
214	0x3ce7d60f	0.028300313
215	0x3e4d2673	0.20034198
216	0xbe80cf26	-0.25158042
217	0xbe5095ec	-0.2036969
218	0x3e805244	0.25062764
219	0x3dc83bc7	0.097770266
220	0x3de8ac4b	0.11360987
221	0x3e201695	0.15633614
222	0x3df01914	0.11723533
223	0xbdff33fd	-0.12461088
224	0xbe2d889b	-0.16946642
225	0xbe4e5234	-0.20148546
226	0xbe5696b8	-0.20955932
227	0x3e95d291	0.29262212
228	0x3e6b08c1	0.22952558
229	0xbc69ebc0	-0.014277399
230	0x3cde5f0d	0.027144933
231	0x3d99ab98	0.07503432
232	0xbe258c07	-0.16166697
233	0xbe099f40	-0.13439655
234	0xbe3a4315	-0.18189652
235	0x3e84c995	0.25935045
236	0xbe8bbbac	-0.2729162
237	0xbe12fecc	-0.1435501
238	0xbe734038	-0.23754966
239	0x3bce9c3d	0.006305246
240	0x3cf2e0f1	0.029648276
241	0xbe8e4ee6	-0.2779457
242	0x3e8f041d	0.27932826
243	0xbe158cd8	-0.14604509
244	0xbd33cd89	-0.043897185
245	0x3d6c5eb1	0.057707492
246	0xbd93f1a5	-0.072238244
247	0xbe4e65c9	-0.20156015
248	0xbdd0dd2f	-0.101984374
249	0xbe84e2ae	-0.25954193
250	0xbe815e9e	-0.252675
251	0x3e3d00f5	0.18457396
252	0xbe7bc04c	-0.24585074
253	0xbe6058c4	-0.21908861
254	0xbdcedae9	-0.101003475
255	0xbd8ac09e	-0.0677502

conv1.lins.4.weight f4 [64, 10]
0	0x3e0603ab	0.13087337
1	0xbdae0c5d	-0.08498452
2	0x3e7d56d1	0.24740149
3	0x3db84311	0.08997167
4	0x3dca0d4e	0.09865819
5	0xbe08adb1	-0.13347508
6	0xbe835712	-0.25652367
7	0xbe86bf89	-0.26318005
8	0xbe8c2673	-0.27373084
9	0xbe7cd404	-0.24690253
10	0xbd80b75a	-0.062849715
11	0x3c61b14d	0.013775182
12	0x3e64385a	0.22287121
13	0xbe2be06b	-0.16784827
14	0x3df3ac6c	0.11898121
15	0xbe3f0a27	-0.18656217
16	0xbda8e1f6	-0.08246224
17	0x3e1e9cb8	0.15489471
18	0xbd83052d	-0.063974716
19	0xbdfe7375	-0.124243654
20	0xbe2ee2f9	-0.1707877
21	0x3e26ff72	0.16308382
22	0x3db91285	0.090367354
23	0xbc5ff5fe	-0.013669489
24	0x3dc39d84	0.09551528
25	0x3da6fe87	0.08154016
26	0x3b81606f	0.0039482634
27	0x3de5d730	0.112226844
28	0x3d45b354	0.048266724
29	0xbe851ca0	-0.25998402
30	0xbe601894	-0.21884376
31	0x3e81adf2	0.25328022
32	0xbdaa0c31	-0.083031066
33	0x3e652a77	0.2237948
34	0x3d2ece66	0.042677306
35	0x3d9e2cdc	0.077234
36	0xbe86d4f9	-0.2633436
37	0xbd197e0c	-0.037473723
38	0x3e7eebfb	0.24894707
39	0xbe032401	-0.12806703
40	0x3c81c36c	0.015840255
41	0x3a81a72f	0.0009891744
42	0x3e064d8c	0.1311552
43	0xbe536f2a	-0.20647874
44	0xbdbd1d65	-0.09234122
45	0xbdc09ee3	-0.09405305
46	0x3e6e2e92	0.23259953
47	0x3da72095	0.081605114
48	0x3dc2c982	0.09511091
49	0x3dd4550f	0.10367786
50	0xbe43dc14	-0.19126922
51	0xbe9b8787	-0.30376837
52	0xbe0f5f36	-0.14001164
53	0x3e21d9b2	0.158057
54	0x3e89840e	0.26858562
55	0x3dc43470	0.09580314
56	0x3d5d6ca6	0.054058693
57	0xbea79af3	-0.32735404
58	0xbe6cddaf	-0.2313144
59	0x3cde681a	0.027149249
60	0xbe8355cd	-0.25651398
61	0xbd313614	-0.043264464
62	0xbe33b42c	-0.17549199
63	0x3d6d311b	0.05790816
64	0x3e22d83c	0.159028
65	0xbd81f81a	-0.0634615
66	0xbe7fde82	-0.24987224
67	0xbb66c790	-0.0035214163
68	0x3e8f3e66	0.27977294
69	0xbea4de25	-0.32200733
70	0x3e84c0cf	0.2592835
71	0xbe819164	-0.25306237
72	0x3e8278e9	0.25482872
73	0xbe8ff4e1	-0.28116515
74	0xbe102a88	-0.14078724
75	0xbc844ae2	-0.016148988
76	0x3d2433ad	0.040088344
77	0xbe1efd65	-0.1552635
78	0xbd7aefaa	-0.061263718
79	0xbd75fe60	-0.060057044
80	0x3dfa5ca8	0.12224704
81	0xbe1d22a5	-0.15345247
82	0xbdc457e0	-0.09587073
83	0x3defde03	0.11712267
84	0xbe5b6c02	-0.2142792
85	0xbc6540a3	-0.013992461
86	0x3d986b7e	0.074423775
87	0x3d773596	0.060353838
88	0xbcd2ffe6	-0.025756788
89	0xbdec4976	-0.11537449
90	0xbe2202c2	-0.15821365
91	0xbd90c38b	-0.07068547
92	0x3e51178f	0.20419143
93	0x3df69426	0.12039976
94	0xbdd2baed	-0.102895595
95	0x3e80527f	0.2506294
96	0x3d16b771	0.036796037
97	0xbe658cc6	-0.22416982
98	0xbe7214c9	-0.23640741
99	0x3cc519dc	0.024060182
100	0x3e3f9a02	0.18711093
101	0xbe0870da	-0.133243
102	0xbde7b8c0	-0.11314535
103	0x3e144882	0.14480785
104	0xbde1a20e	-0.110172376
105	0x3dcc5308	0.099767745
106	0x3dfe126c	0.124058574
107	0x3c3aef80	0.01140964
108	0xbe25fbc4	-0.16209322
109	0xbca61850	-0.020275265
110	0x3e8b5a51	0.27217343
111	0x3db763e6	0.08954601
112	0xbdc3a256	-0.095524475
113	0xbd1317eb	-0.03591148
114	0xbe7ce2ba	-0.24695864
115	0xbb02942a	-0.0019924738
116	0xbe11e35c	-0.14246887
117	0xbe610530	-0.21974635
118	0x3cd34f85	0.025794754
119	0x3e1480b7	0.14502226
120	0xbd933503	-0.071878456
121	0x3e18d213	0.14923887
122	0x3e2631cd	0.16229935
123	0xbe143036	-0.14471516
124	0xbe17b2db	-0.14814322
125	0x3e981b90	0.2970853
126	0xbd763c53	-0.060116123
127	0x3e0baaca	0.1363937
128	0x3dcb9b6b	0.09941753
129	0x3dcece15	0.10097901
130	0xbe227c2b	-0.15867679
131	0xbe4d7cc5	-0.20067127
132	0xbe47edd4	-0.19524318
133	0xbe7479f6	-0.2387465
134	0x3e307876	0.17233452
135	0x3e5e5992	0.21713856
136	0x3e4fce68	0.20293581
137	0xbbb5c6ec	-0.005547395
138	0xbe2cbb8c	-0.16868418
139	0xbe839e8e	-0.25706905
140	0x3e2e2fc7	0.17010413
141	0xbc8349f4	-0.016026475
142	0x3d77b9ac	0.060479805
143	0xbd704150	-0.058656037
144	0x3e3db668	0.18526614
145	0xbe1e2146	-0.1544238
146	0xbe28417f	-0.16431235
147	0x3e335ef5	0.17516692
148	0xbe835d42	-0.25657088
149	0x3e3a9ea6	0.18224582
150	0x3e75c809	0.24002089
151	0xbe5c9b13	-0.21543531
152	0xbbaeff76	-0.005340512
153	0x3d03a45a	0.03213916
154	0xbe931e46	-0.28734034
155	0xbe0cb262	-0.13739923
156	0x3dd21fb7	0.102599554
157	0xbe1e3b2b	-0.15452258
158	0x3d905f08	0.07049376
159	0x3e173900	0.14767838
160	0xbe0313ae	-0.12800476
161	0x3e8c6bef	0.27426097
162	0xbe7934f9	-0.24336614
163	0x3de8d190	0.11368096
164	0xbe27e942	-0.16397575
165	0x3d6e4659	0.058172558
166	0xbe0e0e1b	-0.13872568
167	0xbe3ea68e	-0.18618223
168	0xbcfa9cf2	-0.030592415
169	0x3d7089cf	0.058725175
170	0x3e75781a	0.23971596
171	0x3dbe14ac	0.092812866
172	0x3cf3b743	0.029750472
173	0x3de84100	0.11340523
174	0x3d64111b	0.055680376
175	0x3e4337eb	0.190643
176	0x3e2e5c80	0.17027473
177	0xbe4bbdae	-0.19896576
178	0x3e00a74d	0.1256382
179	0xbdeebd23	-0.11657169
180	0x3e03eb3f	0.12882708
181	0x3e854b7b	0.2603415
182	0x3e104a33	0.14090805
183	0xbbfe0478	-0.0077519976
184	0x3e7fc4a7	0.2497736
185	0xbe4178c3	-0.18893723
186	0x3cf35bb4	0.029706813
187	0x3e87074d	0.26372758
188	0xbda05742	-0.07829143
189	0x3e2819b6	0.16416058
190	0x3d0df20d	0.034654666
191	0xbe336dea	-0.17522398
192	0x3db63b9c	0.08898088
193	0xbc34d5d9	-0.011037313
194	0xbcfed0a0	-0.03110534
195	0xbe110853	-0.14163332
196	0x3c4fbdd9	0.012679541
197	0xbd6e2c2f	-0.058147606
198	0xbd52a6fc	-0.05142878
199	0xbe6011a4	-0.2188173
200	0xbd6ae511	-0.05734736
201	0x3e2337d3	0.15939264
202	0x3e02f17c	0.12787431
203	0xbd76768c	-0.06017165
204	0x3e88c81b	0.26715168
205	0x3e64d00a	0.22344986
206	0xbe01916c	-0.1265313
207	0xbde22382	-0.11041929
208	0x3e1722c7	0.1475936
209	0x3e449727	0.19198285
210	0x3d1862dd	0.03720366
211	0x3dd39bc3	0.103324436
212	0x3e819dd9	0.2531574
213	0x3e1fbf89	0.15600409
214	0x3e35f934	0.17770845
215	0x3e8b686c	0.27228105
216	0xbbe8dfac	-0.007106742
217	0x3d27427a	0.04083488
218	0xbb8906a1	-0.0041816984
219	0xbe547dcd	-0.20751114
220	0xbdbd1da3	-0.092341684
221	0xbe96ab88	-0.29427743
222	0x3e3cce77	0.18438135
223	0x3d401d41	0.0469029
224	0xbe1fb57c	-0.15596575
225	0x3df46123	0.1193259
226	0xbeb37552	-0.35050446
227	0x3e39ae3f	0.18132876
228	0x3e4b6e49	0.19866289
229	0xbc1d9b54	-0.009619553
230	0xbdf7f1e1	-0.121066816
231	0xbe822c6d	-0.2542452
232	0x3e3db61a	0.18526497
233	0xbd1720ae	-0.0368964
234	0xbd57c6b5	-0.052679736
235	0x3dbbee90	0.091763616
236	0xbd9689ee	-0.07350527
237	0xbe9192aa	-0.28432208
238	0xbd231c8c	-0.039822146
239	0xbe2771fb	-0.16352074
240	0xbe1a63b3	-0.15077095
241	0x3e13544a	0.14387622
242	0x3e47b76a	0.1950356
243	0xbe40e415	-0.18837006
244	0xbd478459	-0.0487102
245	0x3e72c1ca	0.23706737
246	0x3e9004ad	0.28128567
247	0x3e3121ae	0.17298004
248	0xbdfb78a1	-0.122788675
249	0xbd08b0bf	-0.033371683
250	0xbe345367	-0.1760994
251	0x3e487953	0.19577532
252	0xbd7adc98	-0.06124553
253	0x3ded43a2	0.115851656
254	0x3e0f57de	0.13998362
255	0x3b9dd84f	0.0048170458

conv2.bias f4 [64]
0	0xbc300e0b	-0.010745536
1	0xbb0be1c7	-0.002134429
2	0xbaf99756	-0.0019042294
3	0xbb40280f	-0.0029320752
4	0x00000000	0.0
5	0xbad3c8ce	-0.0016157867
6	0xbb2872f8	-0.0025703292
7	0xbb81743d	-0.0039506243
8	0x3ab6ea28	0.0013955282
9	0x3ae69ed1	0.0017594938
10	0x3a85d921	0.0010211804
11	0x3bd5a12d	0.006519458
12	0x3b887919	0.0041648266
13	0xbb905cbd	-0.0044055865
14	0xbbfed554	-0.0077768955
15	0xbb9cf6a8	-0.004790146
16	0x3b9390a3	0.004503326
17	0x3b8d187a	0.0043058963
18	0xbb049100	-0.0020228028
19	0xbc29223b	-0.010323103
20	0xb917319b	-0.00014418962
21	0x3bb7f8ea	0.0056143897
22	0xbb77f17a	-0.003783314
23	0x3b9d7c1e	0.0048060557
24	0xbba8b824	-0.0051489044
25	0x3bcb479e	0.006203606
26	0x3b3dbbc4	0.0028951028
27	0x3ba12d11	0.0049187024
28	0x3b4dff35	0.0031432633
29	0x3b85cb01	0.004083038
30	0x3a1815eb	0.0005801606
31	0xbb86e4aa	-0.0041166143
32	0xba280e42	-0.0006410816
33	0xbb22f6ea	-0.002486641
34	0xbba877de	-0.0051412424
35	0x39a7127e	0.000318665
36	0x3b1ebd68	0.0024221782
37	0x3abeb92e	0.0014551037
38	0x3a2fc35d	0.00067048316
39	0xbb3ef2ef	-0.00291365
40	0xba8c7201	-0.0010715128
41	0x3ba7f3f1	0.0051255156
42	0x3a92471c	0.0011160108
43	0xba037a59	-0.00050154846
44	0xbb0c78c6	-0.0021434291
45	0xbbcf8e99	-0.0063341376
46	0x3bac0b82	0.0052503953
47	0xb8326108	-4.2528874e-05
48	0xbbcce457	-0.006252806
49	0x3c0e1fc4	0.008674566
50	0xbbb9431d	-0.0056537525
51	0xb9a50bd7	-0.00031480074
52	0xbaa6dcbc	-0.0012730579
53	0xbbdd25e1	-0.0067489003
54	0xbb8e3fe2	-0.0043411115
55	0xbb7f4383	-0.0038950152
56	0x3ab80d0a	0.0014041972
57	0xbab1edff	-0.0013574957
58	0x3b864a2c	0.0040981974
59	0xbc21f63b	-0.009885366
60	0xbc002548	-0.007821389
61	0x3a48fc6d	0.0007667009
62	0xbb6d044f	-0.0036165898
63	0x3b4aed1b	0.003096408

conv2.lins.0.weight f4 [64, 64]
0	0x3e0b3ac9	0.13596644
1	0x3e1a51aa	0.15070215
2	0x3db80839	0.08985943
3	0xbe4dfce8	-0.20116007
4	0x3d9dc2eb	0.07703193
5	0x3df19a96	0.11797063
6	0x3c0c7940	0.00857383
7	0x3e4b7859	0.19870128
8	0xbe4a12f9	-0.197338
9	0x3d4760ec	0.048676416
10	0x3e473345	0.19453152
11	0x3de6fc20	0.11278558
12	0xbd0ae1e3	-0.03390683
13	0xbccd0ff3	-0.02503202
14	0xbe052485	-0.13002212
15	0x3e46fa7c	0.1943149
16	0xbca85491	-0.020548137
17	0xbce9a7b6	-0.028522354
18	0xbcb259ba	-0.0217713
19	0x3c95af9b	0.018272212
20	0xbd32aba7	-0.04362073
21	0x3df56dda	0.11983843
22	0x3d836112	0.06414999
23	0x3e08a87e	0.13345525
24	0x3c973130	0.018456072
25	0x3e54cef1	0.20782067
26	0x3dc1dced	0.094659664
27	0x3c8d828c	0.017274164
28	0xbd7ddbf1	-0.06197733
29	0xbdc58302	-0.096441284
30	0x3e25e6e9	0.16201366
31	0xbd814766	-0.06312446
32	0xbe048f54	-0.129453
33	0x3b2989be	0.0025869454
34	0xbdccfe5c	-0.10009453
35	0x3e0e2b33	0.13883667
36	0x3c20863b	0.009797628
37	0xbe4e5dda	-0.20152989
38	0x3e0081ec	0.12549561
39	0xbd381a64	-0.044947043
40	0xbd14cc19	-0.036327455
41	0x3de80863	0.11329725
42	0xbe17e598	-0.14833677
43	0x3d81d6ae	0.06339775
44	0x3d3c2538	0.045933932
45	0x3e24ed21	0.16106082
46	0xbd2f86a1	-0.042853
47	0x3d99f771	0.07517899
48	0x3d1d60a8	0.038422257
49	0x3cbe0ccb	0.02319946
50	0xbe16c85c	-0.14724869
51	0x3e02b8b2	0.12765768
52	0xbe15f066	-0.14642486
53	0xbd6e3dbb	-0.05816434
54	0xbe558935	-0.20853122
55	0xbd8979c9	-0.06712682
56	0x3c411d23	0.011786732
57	0xbe096579	-0.13417615
58	0x3d856538	0.065134466
59	0xbe13a3f1	-0.14418007
60	0x3e27e013	0.16394071
61	0xbd85970f	-0.06522953
62	0xbc4eea19	-0.012629055
63	0x3d061952	0.03273899
64	0xbbd7dda9	-0.0065877032
65	0xbe000440	-0.12501621
66	0xbd9f2df7	-0.07772439
67	0x3df7e65c	0.121044844
68	0x3e3e0d61	0.18559791
69	0x3e4ec355	0.20191701
70	0x3ca2c649	0.01986994
71	0xbde879da	-0.11351366
72	0xbdb1524a	-0.086582735
73	0x3d427f01	0.0474844
74	0xbe1f392a	-0.1554915
75	0x3dcd3286	0.10019402
76	0xbd92b8f3	-0.071641825
77	0x3de675f1	0.11252964
78	0xbdb442c8	-0.088018
79	0xbd92c05e	-0.071655974
80	0x3e6ab8af	0.22922014
81	0x3e4c353b	0.19942181
82	0x3e45bcf4	0.19310361
83	0xbe3225cb	-0.1739723
84	0x3e538dd0	0.20659566
85	0xbd4f1832	-0.050560184
86	0x3e5fd9ac	0.21860379
87	0xbbf237e7	-0.007391918
88	0x3bdbeed5	0.0067118206
89	0xbcff3069	-0.031151013
90	0x3d071ae5	0.032984633
91	0x3df6eaea	0.12056525
92	0xbde19a94	-0.110158116
93	0xbd42eb43	-0.047587644
94	0xbd16cc67	-0.036816027
95	0xbe4d43d5	-0.20045407
96	0xbded3525	-0.11582402
97	0x3e0d8c85	0.13823135
98	0x3e268d17	0.16264759
99	0x3db1629c	0.08661386
100	0xbc10e3e5	-0.008843397
101	0x3e2ba12e	0.16760704
102	0x3d817957	0.06321972
103	0x3e232d09	0.15935148
104	0xbd2d620f	-0.042329844
105	0xbcd3205e	-0.02577227
106	0xbd10f1ed	-0.03538697
107	0x3cbafa64	0.022824474
108	0x3e50efc4	0.20403963
109	0x3e1e7acc	0.15476531
110	0x3e1d08da	0.15335408
111	0xbe29ae7d	-0.16570468
112	0x3e55272e	0.20815727
113	0xbe78a1c5	-0.2428046
114	0xbdf93293	-0.121678494
115	0xbe3a12c3	-0.1817122
116	0x3c8f1b70	0.017469138
117	0x3d8e4d46	0.069483325
118	0xbe3962d6	-0.18104109
119	0x3e24d5bc	0.16097158
120	0xbe2889ea	-0.1645886
121	0x3e47f38c	0.195265
122	0x3e1df8c9	0.15426935
123	0x3c41ed90	0.0118364245
124	0xbca100b4	-0.019653656
125	0x3df556b9	0.11979432
126	0xbe14c498	-0.1452812
127	0x3e112d6b	0.14177482
128	0xbe5d9f44	-0.21642786
129	0xbe483ed3	-0.19555216
130	0x3d70ff22	0.058837064
131	0xbe621cb6	-0.22081265
132	0x3e349cb9	0.1763791
133	0xbe3153be	-0.17317101
134	0x3d492826	0.049110554
135	0xbe4e18c7	-0.2012664
136	0xbd81e2f4	-0.06342116
137	0x3db4ca76	0.08827679
138	0x3d067c90	0.032833636
139	0xbe4fed5e	-0.20305392
140	0xbdb82fcd	-0.08993492
141	0xbd75bb5b	-0.05999313
142	0xbded5653	-0.11588731
143	0xbe426985	-0.18985565
144	0x3dd09980	0.10185528
145	0x3c998685	0.018740902
146	0x3db39592	0.08768763
147	0x3e0566a4	0.13027436
148	0xbe0b7c0d	-0.1362154
149	0xbd5d6353	-0.0540498
150	0xbd9a732d	-0.07541499
151	0x3dda80b0	0.106690764
152	0x3e4842cc	0.19556731
153	0x3da77866	0.08177261
154	0xbe42a300	-0.19007492
155	0x3d8f08aa	0.069840744
156	0xbe238528	-0.15968764
157	0x3deda192	0.11603083
158	0x3e2ae41f	0.16688584
159	0x3e39b3a7	0.18134938
160	0x3e500b08	0.20316708
161	0xbd88f52a	-0.06687386
162	0x3d1e74aa	0.03868548
163	0xbe0eea7d	-0.13956638
164	0x3e58f1ad	0.21185942
165	0x3d2ddb72	0.042445607
166	0x3bc0157e	0.005861937
167	0xbdecbcc2	-0.1155944
168	0x3cfdbac0	0.030972838
169	0xbd570e37	-0.05250379
170	0xbdd0b857	-0.1019141
171	0x3df9593d	0.12175224
172	0x3e4169bf	0.18887995
173	0xbe3a2ae6	-0.18180427
174	0xbe14367a	-0.14473906
175	0xbe424e78	-0.18975246
176	0x3cf348ff	0.029697893
177	0x3d5d79b3	0.05407114
178	0xbe31cb42	-0.17362693
179	0x3e03a8bb	0.12857334
180	0xbd03e56f	-0.032201227
181	0x3d4a55d7	0.04939827
182	0xbd836101	-0.064149864
183	0x3cbe86b9	0.0232576
184	0xbe2b59cc	-0.16733474
185	0xbd9006d5	-0.07032553
186	0x3e1d2e24	0.15349633
187	0xbe3059ef	-0.17221807
188	0x3c923986	0.017849695
189	0xbe5743f1	-0.21022011
190	0x3e2aa886	0.16665849
191	0x3e3986f3	0.18117885
192	0xbe3f0854	-0.1865552
193	0xbc9d50a3	-0.01920349
194	0xbdd66af6	-0.1046962
195	0xbcfc2881	-0.030781033
196	0x3e35707d	0.17718692
197	0xbe0d5e5b	-0.13805525
198	0xbdfecff8	-0.12442011
199	0xbd171dd8	-0.036893696
200	0x3e025e7e	0.12731358
201	0x3c893b58	0.01675193
202	0x3de8f2a6	0.113744065
203	0xbd5bae1b	-0.053632837
204	0x3e1bed19	0.15227164
205	0x3da079fb	0.07835766
206	0x3d9ef435	0.077614225
207	0x3e0d4bfc	0.13798517
208	0xbe54d9c2	-0.20786193
209	0x3cdad168	0.02671118
210	0xbdd1aff8	-0.102386415
211	0x3e113f5e	0.14184329
212	0xbe1a9e25	-0.1509939
213	0x3d8d8ef9	0.069120355
214	0xbe0a74d2	-0.13521126
215	0x3d666d01	0.056256298
216	0xbe17af23	-0.14812903
217	0xbe4474b6	-0.19185147
218	0x3e435a8b	0.19077508
219	0xbd84aa6c	-0.06477818
220	0xbe122d68	-0.14275134
221	0xbdc27210	-0.09494412
222	0x3dcbb21c	0.09946081
223	0x3db758d6	0.08952491
224	0xbda27bf3	-0.07933798
225	0xbdc6417e	-0.096804604
226	0x3e4db79e	0.20089576
227	0xbdc45353	-0.09586205
228	0x3e368c39	0.17826928
229	0xbd8e5d50	-0.06951392
230	0xbd47f08d	-0.04881339
231	0xbdcdac72	-0.10042657
232	0x3dbc0b2b	0.091818176
233	0x3c9378e7	0.018001987
234	0x3e122bf7	0.14274584
235	0x3dabccf3	0.083887
236	0xbe003a13	-0.12522154
237	0x3d70bbc4	0.058772817
238	0x3e082d16	0.13298449
239	0x3db15ba5	0.08660058
240	0xbe5208f4	-0.20511228
241	0x3dfb15ef	0.12260043
242	0x3e013ce0	0.12620878
243	0xbd133648	-0.03594044
244	0xbe4b94aa	-0.1988093
245	0xbdfef31a	-0.12448712
246	0xbda7977e	-0.08183192
247	0x3c6deaad	0.014521283
248	0x3dc881db	0.09790393
249	0x3e300eff	0.1719322
250	0xbe432a25	-0.19059046
251	0xbdebfb22	-0.11522509
252	0x3c723aba	0.014784509
253	0xbd8e6a9d	-0.069539286
254	0xbb33ab84	-0.0027415464
255	0x3e43d79c	0.19125217
