src/saved_weights.pt (torch, 45353 bytes, 22 tensors)

conv1.att_src f4 [1, 1, 64]
-0.12299966 -0.032877095 -0.035562184 -0.26970258 -0.038606375 -0.04688134 -0.21745196 -0.097126946
0.12731774 0.011464851 -0.3041933 0.22126418 0.147756 0.234067 0.056975707 0.19761689
-0.21557984 -0.11448949 0.1313734 0.25699583 0.06516582 -0.19139908 0.1848311 0.1451867
0.14337298 0.10340244 0.09456766 -0.15517174 0.2118401 0.030379107 -0.070622966 -0.21941137
-0.018532293 0.13101257 -0.19192222 -0.21081752 0.09019645 -0.09430206 0.04617107 -0.05079788
0.19172429 0.096316546 7.162677e-05 0.10464326 -0.3247259 -0.3204077 -0.059805505 0.23606259
-0.28080055 0.10950599 -0.21153684 -0.12749994 0.27218878 0.30212414 0.055245236 0.16687898
-0.27226183 -0.059340537 0.28293806 -0.13173021 -0.3206704 0.107971445 -0.24855877 -0.11696575
00000000: 3fe7 fbbd 22aa 06bd a7a9 11bd 7516 8abe
00000010: b821 1ebd a606 40bd baab 5ebe 7eea c6bd
00000020: 955f 023e 12d7 3b3c 39bf 9bbe 1493 623e
00000030: 594d 173e 42af 6f3e 5c5f 693d 155c 4a3e
00000040: f6c0 5cbe 7779 eabd c086 063e f594 833e
00000050: a875 853d 1ffe 43be 5d44 3d3e d3ab 143e
00000060: 5ed0 123e a9c4 d33d b0ac c13d 57e5 1ebe
00000070: 9cec 583e 9bdd f83c c6a2 90bd 60ad 60be
00000080: 09d1 97bc 2928 063e 4287 44be 8ce0 57be
00000090: ebb8 b83d 7021 c1bd e01d 3d3d 7011 50bd
000000a0: 5f53 443e 9c41 c53d 5436 9638 354f d63d
000000b0: 7942 a6be 7a0c a4be 9ef6 74bd 64ba 713e
000000c0: 17c5 8fbe ad44 e03d 1d9d 58be 588f 02be
000000d0: 545c 8b3e 04b0 9a3e d448 623d 53e2 2a3e
000000e0: e765 8bbe 100f 73bd 42dd 903e 49e4 06be
000000f0: e92e a4be 2220 dd3d 3186 7ebe bd8b efbd

conv1.att_dst f4 [1, 1, 64]
-0.21358466 -0.008035028 -0.29309702 -0.058711283 -0.24577884 0.13425148 -0.017481131 -0.001915715
0.042262375 -0.012382059 0.030992467 0.04577047 0.09080244 -0.3049905 0.012059744 -0.2398548
-0.00059488893 -0.2611048 0.124153435 0.16711181 0.092883855 -0.123609744 -0.039732188 0.2599745
0.043137774 0.1285642 0.2600701 0.2948195 -0.2656232 -0.21097714 0.19096056 -0.056261998
0.1506261 0.11740671 0.24481638 0.18569702 -0.21347547 -0.2967615 -0.083839975 0.25597438
-0.08967336 0.060239363 0.23221816 -0.069226235 0.08999881 0.2528305 -0.17682678 -0.1919379
0.16361935 0.29922774 0.08661066 -0.28136668 0.16274294 -0.008233663 0.24981247 -0.002255104
0.046625055 -0.056067243 0.04460459 0.08371427 -0.17871144 -0.02924813 -0.10947087 -0.095369816
00000000: f0b5 5abe 5aa5 03bc d010 96be 3e7b 70bd
00000010: 73ad 7bbe 3879 093e 9734 8fbc bb18 fbba
00000020: 501b 2d3d 1fde 4abc eae3 fd3c d179 3b3d
00000030: a1f6 b93d b727 9cbe 3c96 453c 7f9c 75be
00000040: 52f2 1bba 87af 85be 2844 fe3d 5c1f 2b3e
00000050: e439 be3d 1b27 fdbd 38be 22bd 611b 853e
00000060: 3cb1 303d 55a6 033e e827 853e 95f2 963e
00000070: c4ff 87be 640a 58be 2a8b 433e fb72 66bd
00000080: ba3d 1a3e ee72 f03d 25b1 7a3e 5c27 3e3e
00000090: 5099 5abe 20f1 97be 4bb4 abbd 130f 833e
000000a0: aba6 b7bd 8dbd 763d 99ca 6d3e 7cc6 8dbd
000000b0: 4c51 b83d 0073 813e 1412 35be 5e8b 44be
000000c0: d58b 273e 6134 993e ee60 b13d 4b0f 90be
000000d0: 16a6 263e 7ce6 06bc d7ce 7f3e 5eca 13bb
000000e0: eaf9 3e3d c4a6 65bd 4db3 363d 6372 ab3d
000000f0: 2200 37be c699 efbc 4332 e0bd 4051 c3bd

conv1.att_edge f4 [1, 1, 64]
0.27836147 -0.18507242 -0.1344295 -0.3587966 -0.40495586 0.12970363 0.34863624 -0.11257314
-0.034120157 -0.35405055 -0.40434447 0.29277804 0.10603606 0.06219892 0.3664416 0.13035482
-0.26841596 -0.018439746 -0.3643817 -0.081183575 0.23884855 -0.22719556 -0.17608936 0.09600709
-0.10923435 0.100917794 0.35642323 0.29743958 -0.448077 0.38471612 -0.062347233 0.3846008
0.41546416 0.480814 0.039912354 -0.08768263 0.34427834 0.40441936 -0.43145725 -0.39366633
0.3628304 0.47773537 0.12263988 0.44909483 -0.00023537164 0.1335839 0.4528802 -0.38796502
0.21849501 -0.18577115 -0.032454748 0.25767043 0.46163175 0.37723377 0.070317686 -0.17732558
0.013110205 0.25033295 -0.39803174 -0.18583679 0.47181427 0.4708208 -0.35693756 -0.08251363
00000000: 6585 8e3e a083 3dbe e3a7 09be 30b4 b7be
00000010: 6056 cfbe 07d1 043e 7380 b23e bf8c e6bd
00000020: 94c1 0bbd 1d46 b5be 3d06 cfbe 01e7 953e
00000030: 6f29 d93d 4bc4 7e3d 3c9e bb3e bc7b 053e
00000040: d16d 89be f30e 97bc 3d90 babe 9343 a6bd
00000050: b794 743e f4a5 68be c550 34be 5d9f c43d
00000060: 42b6 dfbd fdad ce3d 1b7d b63e 004a 983e
00000070: 596a e5be 83f9 c43e d05f 7fbd 65ea c43e
00000080: b8b7 d43e 412d f63e 237b 233d f392 b3bd
00000090: 4045 b03e 0e10 cf3e f7e7 dcbe a28e c9be
000000a0: e8c4 b93e bb99 f43e 9e2a fb3d c2ef e53e
000000b0: 18ce 76b9 38ca 083e eadf e73e 5aa3 c6be
000000c0: 28bd 5f3e cb3a 3ebe 45ef 04bd 61ed 833e
000000d0: ff5a ec3e c924 c13e b802 903d d694 35be
000000e0: 2fcc 563c a42b 803e d1ca cbbe 004c 3ebe
000000f0: a491 f13e 6d0f f13e 85c0 b6be e8fc a8bd

conv1.bias f4 [64]
-0.04835869 0.0032011343 0.005405942 -0.0079425 0.008959324 0.010201528 0.0 0.017484618
-0.0468117 0.019661928 0.0 -0.008063537 -0.02837047 -0.024123017 0.023804225 0.010275105
0.0379461 -0.0022406995 -0.021335829 -0.0065066544 0.01852564 0.020319615 -0.011244746 0.013524841
-0.04131758 -0.022746652 0.020777404 -0.00097288995 -0.012898372 -0.011891669 0.011653747 0.044235285
0.0 0.008127432 0.00027490055 -0.0070757675 -0.00048695874 -0.015552526 0.02920885 -0.0058248653
-0.020184508 0.0004403637 -0.0035550806 -0.013646552 -0.0031698796 0.0 0.036315616 -0.043222632
0.02129262 -0.026829477 0.074904926 0.03281272 0.0035731709 -0.0024443883 0.009993644 -0.029413365
0.0052352105 0.02471433 0.007106311 -0.019249221 0.0026591832 0.041032884 0.008457324 0.012302493
00000000: c313 46bd 1fca 513b 5424 b13b 4221 02bc
00000010: 21ca 123c 4f24 273c 0000 0000 e73b 8f3c
00000020: a0bd 3fbd 0d12 a13c 0000 0000 ed1c 04bc
00000030: 3069 e8bc a29d c5bc 1401 c33c ea58 283c
00000040: 5f6d 1b3d b3d8 12bb 7ac8 aebc c635 d5bb
00000050: 15c3 973c 5275 a63c e23b 38bc 4b97 5d3c
00000060: 9f3c 29bd 3057 babc 6035 aa3c 8a09 7fba
00000070: b153 53bc 46d5 42bc 5cef 3e3c 0f30 353d
00000080: 0000 0000 ec28 053c 8720 9039 d7db e7bb
00000090: 7f4e ffb9 06d0 7ebc 6647 ef3c 83de bebb
000000a0: fb59 a5bc 9ee0 e639 5bfc 68bb ca95 5fbc
000000b0: c1bd 4fbb 0000 0000 afbf 143d 370a 31bd
000000c0: dc6d ae3c 7ec9 dbbc c167 993d a166 063d
000000d0: dc2b 6a3b 0832 20bb 62bc 233c 4cf4 f0bc
000000e0: 218c ab3b b575 ca3c 0fdc e83b 8bb0 9dbc
000000f0: b145 2e3b 1912 283d 9690 0a3c 6590 493c

conv1.lin_src.weight f4 [64, 10]
-0.2222942 0.11881377 0.10153482 -0.18296002 -0.12919536 0.13026454 0.22319804 0.012094026
-0.3002847 -0.098536104 -0.084339805 0.31909722 -0.07033548 -0.21969298 0.23603581 0.028575227
0.05154518 -0.052662753 -0.13367984 0.24195486 0.050604533 -0.11173371 -0.17767529 -0.11313267
0.22514035 0.1968291 -0.31465518 0.26571205 -0.011393547 0.27178612 -0.3134931 -0.097708605
0.15936475 0.043124616 0.073268436 -0.30658513 -0.058291417 0.26378912 -0.3464136 0.27280012
-0.002945537 0.15880156 0.052654978 0.12168939 -0.20162305 0.23353013 -0.018839575 -0.09673098
-0.27912068 -0.11968149 0.18231119 -0.14867018 0.025386881 0.055875923 -0.013538807 -0.31444383
-0.1550287 -0.11044246 -0.2067172 0.3307568 -0.14336729 -0.0134078665 -0.03265742 -0.1070305
-0.05674313 -0.2719556 -0.016208718 0.11107328 -0.315721 -0.07692681 -0.04500735 -0.15474427
0.099122986 -0.16945344 0.028618725 -0.012807392 -0.07028522 -0.21280916 0.21458422 0.022649892
-0.16377382 0.11505333 0.2362598 -0.31755173 -0.2251351 0.23449415 -0.083080664 -0.2354852
0.10110961 -0.1241194 0.25788373 -0.3637099 -0.012949163 -0.1906726 -0.1854631 0.2660462
0.22261833 -0.12864543 -0.22717088 0.11612265 -0.048829958 -0.019806407 -0.10780716 -0.26936904
-0.0701751 -0.13442996 0.07021127 0.06396647 -0.2988558 0.012946815 -0.02334929 -0.17127167
0.08541021 -0.29635808 -0.26701683 0.19266456 -0.370469 -0.50741255 0.13895926 -0.06520131
0.1308556 -0.36333722 -0.06523524 0.120184734 -0.2649611 0.092428565 0.27066422 -0.09538531
-0.25713935 0.21563089 0.2499821 0.13917382 -0.11588142 0.013572004 -0.06609705 0.20439006
0.2310119 0.19358106 -0.2576794 -0.23610575 0.0009886908 0.27195364 0.018934114 -0.20492272
-0.1315189 0.24618785 -0.09555929 0.185549 0.041618768 0.062367868 -0.17147346 0.19154915
0.004102134 -0.040099744 -0.34210128 0.21666393 0.2536429 0.3222177 0.10231201 -0.2632023
-0.079409614 0.18842602 0.31010127 -0.09203799 0.19697878 0.22939788 -0.15316764 -0.059007786
-0.05685372 -0.08600451 -0.08519288 -0.41136602 0.20598263 -0.28447264 -0.033803638 -0.1762937
0.31246218 0.13047521 0.28644133 0.054633517 0.11805153 -0.2517579 -0.03895208 0.079011835
-0.0051219487 0.16856201 0.16024035 -0.263184 0.07351423 -0.27037063 0.090216994 -0.016756898
-0.10932536 0.002988169 0.13525842 0.43655643 0.22193395 -0.3002555 0.09601756 0.14093661
0.106808186 0.0017582607 0.207412 -0.19384404 0.038598415 -0.2963797 -0.08835643 0.2236148
0.19375098 -0.22064392 0.24109 -0.45890284 0.045994822 -0.3244413 -0.13909961 -0.11905114
-0.27116814 0.1895898 0.23339228 0.1686501 0.113359146 0.14085644 0.05690709 -0.1500147
0.036495622 0.04013641 0.28436288 0.16604495 -0.06716706 -0.113038994 -0.099893995 0.18196477
0.2956898 0.07628307 -0.40421847 0.36843535 0.005589801 -0.08046081 -0.21389875 0.08190747
0.23926416 0.13972571 -0.24801071 -0.06852999 0.043067925 -0.2130691 0.054550104 -0.11338572
0.17947169 -0.060965966 0.2264239 0.03027319 0.07483967 0.17410132 0.15926716 -0.031001538
00000000: 17a1 63be a254 f33d 7df1 cf3d df59 3bbe
00000010: ca4b 04be 1164 053e 078e 643e 0626 463c
00000020: ebbe 99be 4ccd c9bd 59ba acbd b660 a33e
00000030: 0c0c 90bd 32f7 60be 5fb3 713e 9816 ea3c
00000040: 0a21 533d e6b4 57bd 5ee3 08be 04c3 773e
00000050: b346 4f3d a5d4 e4bd 83f0 35be 1ab2 e7bd
00000060: 318b 663e 918d 493e 7c1a a1be 690b 883e
00000070: 00ac 3abc 8d27 8b3e 2b82 a0be 731b c8bd
00000080: 8330 233e 70a3 303d c30d 963d baf8 9cbe
00000090: fbc2 6ebd 5e0f 873e 205d b1be 75ac 8b3e
000000a0: e909 41bb e09c 223e bfac 573d 4938 f93d
000000b0: 4676 4ebe 8622 6f3e 7455 9abc e41a c6bd
000000c0: e8e8 8ebe 921b f5bd c9af 3a3e ff3c 18be
000000d0: 26f8 cf3c 27de 643d dfd1 5dbc c8fe a0be
000000e0: d8bf 1ebe a82f e2bd acad 53be f558 a93e
000000f0: e0ce 12be abac 5bbc c9c3 05bd cf32 dbbd
00000100: 7c6b 68bd c43d 8bbe 25c8 84bc 637a e33d
00000110: 2fa6 a1be ce8b 9dbd a159 38bd 4875 1ebe
00000120: fe00 cb3d 3485 2dbe d171 ea3c 18d6 51bc
00000130: b3f1 8fbd a5ea 59be f7bb 5b3e 448c b93c
00000140: 53b4 27be 15a1 eb3d 17ee 713e 2496 a2be
00000150: d189 66be 3c1f 703e 3226 aabd 0823 71be
00000160: 8e12 cf3d 5032 febd 5609 843e 2f38 babe
00000170: ba28 54bc ae3f 43be 0aea 3dbe 3537 883e
00000180: 0ff6 633e a1bb 03be 7c9f 68be b6d1 ed3d
00000190: ec01 48bd 0c41 a2bc 00ca dcbd bdea 89be
000001a0: f6b7 8fbd 02a8 09be edca 8f3d da00 833d
000001b0: a103 99be e11e 543c 0347 bfbc d761 2fbe
000001c0: 8ceb ae3d 3fbc 97be 6eb6 88be dc49 453e
000001d0: 1dae bdbe cae5 01bf 564b 0e3e 4488 85bd
000001e0: 03ff 053e 5607 babe 0e9a 85bd 6a23 f63d
000001f0: fba8 87be 304b bd3d 8094 8a3e 6059 c3bd
00000200: c5a7 83be 58ce 5c3e 4ffb 7f3e 9583 0e3e
00000210: 3d53 edbd 1c5d 5e3c e45d 87bd a14b 513e
00000220: 628e 6c3e 1d3a 463e 8eee 83be b5c5 71be
00000230: f596 813a 823d 8b3e b71b 9b3c 43d7 51be
00000240: e4ac 06be ab18 7c3e 97b4 c3bd 8f00 3e3e
00000250: 7178 2a3d 7375 7f3d bd96 2fbe 7625 443e
00000260: 326b 863b a13f 24bd e627 afbe 26dd 5d3e
00000270: 7bdd 813e b8f9 a43e f688 d13d 74c2 86be
00000280: 82a1 a2bd c0f2 403e 98c5 9e3e 6a7e bcbd
00000290: ceb4 493e 47e7 6a3e fad7 1cbe 26b2 71bd
000002a0: 72df 68bd 2223 b0bd 9b79 aebd 919e d2be
000002b0: 1ced 523e 66a6 91be af75 0abd 5686 34be
000002c0: 0bfb 9f3e 4b9b 053e 70a8 923e 65c7 5f3d
000002d0: 00c5 f13d 69e6 80be 378c 1fbd f5d0 a13d
000002e0: 05d6 a7bb 859b 2c3e 0c16 243e 0ec0 86be
000002f0: a18e 963d 056e 8abe b0c3 b83d c345 89bc
00000300: f9e5 dfbd 28d5 433b 2f81 0a3e 5384 df3e
00000310: a742 633e 17bb 99be dba4 c43d b051 103e
00000320: 40be da3d 7075 e63a d063 543e 0d7f 46be
00000330: 5f19 1e3d 14bf 97be 37f4 b4bd 47fb 643e
00000340: a866 463e 7bf0 61be 4ce0 763e 50f5 eabe
00000350: 1165 3c3d 2c1d a6be 2170 0ebe 16d1 f3bd
00000360: 8dd6 8abe d423 423e 63fe 6e3e 9db2 2c3e
00000370: d728 e83d ac3c 103e 6917 693d 749d 19be
00000380: 6f7c 153d 1466 243d 0398 913e b007 2a3e
00000390: e28e 89bd fd80 e7bd 3995 ccbd f954 3a3e
000003a0: a764 973e 4c3a 9c3d b9f5 cebe 8fa3 bc3e
000003b0: a62a b73b a3c8 a4bd 4608 5bbe 1bbf a73d
000003c0: aa01 753e 4214 0f3e 85f6 7dbe 7459 8cbd
000003d0: fe67 303d c92e 5abe ee6f 5f3d c636 e8bd
000003e0: 6dc7 373e 73b7 79bd abdb 673e 7bff f73c
000003f0: 8a45 993d 9e47 323e ee16 233e f0f6 fdbc

conv1.lin_dst.weight f4 [64, 10]
-0.2222942 0.11881377 0.10153482 -0.18296002 -0.12919536 0.13026454 0.22319804 0.012094026
-0.3002847 -0.098536104 -0.084339805 0.31909722 -0.07033548 -0.21969298 0.23603581 0.028575227
0.05154518 -0.052662753 -0.13367984 0.24195486 0.050604533 -0.11173371 -0.17767529 -0.11313267
0.22514035 0.1968291 -0.31465518 0.26571205 -0.011393547 0.27178612 -0.3134931 -0.097708605
0.15936475 0.043124616 0.073268436 -0.30658513 -0.058291417 0.26378912 -0.3464136 0.27280012
-0.002945537 0.15880156 0.052654978 0.12168939 -0.20162305 0.23353013 -0.018839575 -0.09673098
-0.27912068 -0.11968149 0.18231119 -0.14867018 0.025386881 0.055875923 -0.013538807 -0.31444383
-0.1550287 -0.11044246 -0.2067172 0.3307568 -0.14336729 -0.0134078665 -0.03265742 -0.1070305
-0.05674313 -0.2719556 -0.016208718 0.11107328 -0.315721 -0.07692681 -0.04500735 -0.15474427
0.099122986 -0.16945344 0.028618725 -0.012807392 -0.07028522 -0.21280916 0.21458422 0.022649892
-0.16377382 0.11505333 0.2362598 -0.31755173 -0.2251351 0.23449415 -0.083080664 -0.2354852
0.10110961 -0.1241194 0.25788373 -0.3637099 -0.012949163 -0.1906726 -0.1854631 0.2660462
0.22261833 -0.12864543 -0.22717088 0.11612265 -0.048829958 -0.019806407 -0.10780716 -0.26936904
-0.0701751 -0.13442996 0.07021127 0.06396647 -0.2988558 0.012946815 -0.02334929 -0.17127167
0.08541021 -0.29635808 -0.26701683 0.19266456 -0.370469 -0.50741255 0.13895926 -0.06520131
0.1308556 -0.36333722 -0.06523524 0.120184734 -0.2649611 0.092428565 0.27066422 -0.09538531
-0.25713935 0.21563089 0.2499821 0.13917382 -0.11588142 0.013572004 -0.06609705 0.20439006
0.2310119 0.19358106 -0.2576794 -0.23610575 0.0009886908 0.27195364 0.018934114 -0.20492272
-0.1315189 0.24618785 -0.09555929 0.185549 0.041618768 0.062367868 -0.17147346 0.19154915
0.004102134 -0.040099744 -0.34210128 0.21666393 0.2536429 0.3222177 0.10231201 -0.2632023
-0.079409614 0.18842602 0.31010127 -0.09203799 0.19697878 0.22939788 -0.15316764 -0.059007786
-0.05685372 -0.08600451 -0.08519288 -0.41136602 0.20598263 -0.28447264 -0.033803638 -0.1762937
0.31246218 0.13047521 0.28644133 0.054633517 0.11805153 -0.2517579 -0.03895208 0.079011835
-0.0051219487 0.16856201 0.16024035 -0.263184 0.07351423 -0.27037063 0.090216994 -0.016756898
-0.10932536 0.002988169 0.13525842 0.43655643 0.22193395 -0.3002555 0.09601756 0.14093661
0.106808186 0.0017582607 0.207412 -0.19384404 0.038598415 -0.2963797 -0.08835643 0.2236148
0.19375098 -0.22064392 0.24109 -0.45890284 0.045994822 -0.3244413 -0.13909961 -0.11905114
-0.27116814 0.1895898 0.23339228 0.1686501 0.113359146 0.14085644 0.05690709 -0.1500147
0.036495622 0.04013641 0.28436288 0.16604495 -0.06716706 -0.113038994 -0.099893995 0.18196477
0.2956898 0.07628307 -0.40421847 0.36843535 0.005589801 -0.08046081 -0.21389875 0.08190747
0.23926416 0.13972571 -0.24801071 -0.06852999 0.043067925 -0.2130691 0.054550104 -0.11338572
0.17947169 -0.060965966 0.2264239 0.03027319 0.07483967 0.17410132 0.15926716 -0.031001538
00000000: 17a1 63be a254 f33d 7df1 cf3d df59 3bbe
00000010: ca4b 04be 1164 053e 078e 643e 0626 463c
00000020: ebbe 99be 4ccd c9bd 59ba acbd b660 a33e
00000030: 0c0c 90bd 32f7 60be 5fb3 713e 9816 ea3c
00000040: 0a21 533d e6b4 57bd 5ee3 08be 04c3 773e
00000050: b346 4f3d a5d4 e4bd 83f0 35be 1ab2 e7bd
00000060: 318b 663e 918d 493e 7c1a a1be 690b 883e
00000070: 00ac 3abc 8d27 8b3e 2b82 a0be 731b c8bd
00000080: 8330 233e 70a3 303d c30d 963d baf8 9cbe
00000090: fbc2 6ebd 5e0f 873e 205d b1be 75ac 8b3e
000000a0: e909 41bb e09c 223e bfac 573d 4938 f93d
000000b0: 4676 4ebe 8622 6f3e 7455 9abc e41a c6bd
000000c0: e8e8 8ebe 921b f5bd c9af 3a3e ff3c 18be
000000d0: 26f8 cf3c 27de 643d dfd1 5dbc c8fe a0be
000000e0: d8bf 1ebe a82f e2bd acad 53be f558 a93e
000000f0: e0ce 12be abac 5bbc c9c3 05bd cf32 dbbd
00000100: 7c6b 68bd c43d 8bbe 25c8 84bc 637a e33d
00000110: 2fa6 a1be ce8b 9dbd a159 38bd 4875 1ebe
00000120: fe00 cb3d 3485 2dbe d171 ea3c 18d6 51bc
00000130: b3f1 8fbd a5ea 59be f7bb 5b3e 448c b93c
00000140: 53b4 27be 15a1 eb3d 17ee 713e 2496 a2be
00000150: d189 66be 3c1f 703e 3226 aabd 0823 71be
00000160: 8e12 cf3d 5032 febd 5609 843e 2f38 babe
00000170: ba28 54bc ae3f 43be 0aea 3dbe 3537 883e
00000180: 0ff6 633e a1bb 03be 7c9f 68be b6d1 ed3d
00000190: ec01 48bd 0c41 a2bc 00ca dcbd bdea 89be
000001a0: f6b7 8fbd 02a8 09be edca 8f3d da00 833d
000001b0: a103 99be e11e 543c 0347 bfbc d761 2fbe
000001c0: 8ceb ae3d 3fbc 97be 6eb6 88be dc49 453e
000001d0: 1dae bdbe cae5 01bf 564b 0e3e 4488 85bd
000001e0: 03ff 053e 5607 babe 0e9a 85bd 6a23 f63d
000001f0: fba8 87be 304b bd3d 8094 8a3e 6059 c3bd
00000200: c5a7 83be 58ce 5c3e 4ffb 7f3e 9583 0e3e
00000210: 3d53 edbd 1c5d 5e3c e45d 87bd a14b 513e
00000220: 628e 6c3e 1d3a 463e 8eee 83be b5c5 71be
00000230: f596 813a 823d 8b3e b71b 9b3c 43d7 51be
00000240: e4ac 06be ab18 7c3e 97b4 c3bd 8f00 3e3e
00000250: 7178 2a3d 7375 7f3d bd96 2fbe 7625 443e
00000260: 326b 863b a13f 24bd e627 afbe 26dd 5d3e
00000270: 7bdd 813e b8f9 a43e f688 d13d 74c2 86be
00000280: 82a1 a2bd c0f2 403e 98c5 9e3e 6a7e bcbd
00000290: ceb4 493e 47e7 6a3e fad7 1cbe 26b2 71bd
000002a0: 72df 68bd 2223 b0bd 9b79 aebd 919e d2be
000002b0: 1ced 523e 66a6 91be af75 0abd 5686 34be
000002c0: 0bfb 9f3e 4b9b 053e 70a8 923e 65c7 5f3d
000002d0: 00c5 f13d 69e6 80be 378c 1fbd f5d0 a13d
000002e0: 05d6 a7bb 859b 2c3e 0c16 243e 0ec0 86be
000002f0: a18e 963d 056e 8abe b0c3 b83d c345 89bc
00000300: f9e5 dfbd 28d5 433b 2f81 0a3e 5384 df3e
00000310: a742 633e 17bb 99be dba4 c43d b051 103e
00000320: 40be da3d 7075 e63a d063 543e 0d7f 46be
00000330: 5f19 1e3d 14bf 97be 37f4 b4bd 47fb 643e
00000340: a866 463e 7bf0 61be 4ce0 763e 50f5 eabe
00000350: 1165 3c3d 2c1d a6be 2170 0ebe 16d1 f3bd
00000360: 8dd6 8abe d423 423e 63fe 6e3e 9db2 2c3e
00000370: d728 e83d ac3c 103e 6917 693d 749d 19be
00000380: 6f7c 153d 1466 243d 0398 913e b007 2a3e
00000390: e28e 89bd fd80 e7bd 3995 ccbd f954 3a3e
000003a0: a764 973e 4c3a 9c3d b9f5 cebe 8fa3 bc3e
000003b0: a62a b73b a3c8 a4bd 4608 5bbe 1bbf a73d
000003c0: aa01 753e 4214 0f3e 85f6 7dbe 7459 8cbd
000003d0: fe67 303d c92e 5abe ee6f 5f3d c636 e8bd
000003e0: 6dc7 373e 73b7 79bd abdb 673e 7bff f73c
000003f0: 8a45 993d 9e47 323e ee16 233e f0f6 fdbc

conv1.lin_edge.weight f4 [64, 1]
0.27071962 -0.5104718 0.041246295 -0.13170783 -0.13656987 0.10460602 0.45867258 -0.19810471
-0.210046 -0.38044396 -0.3158168 0.085330166 0.2926954 0.2382878 0.23441948 0.1981867
-0.28333637 0.043642476 -0.36283612 -0.13145332 0.117431685 -0.20987326 -0.21402422 0.27883154
0.11479862 0.081484735 0.40484783 0.48361668 -0.4174405 0.39747953 0.041994262 0.44895324
0.37433475 0.379042 -0.14016762 0.08276419 0.10769859 0.20109725 -0.46347898 -0.24386108
0.11623463 0.44446635 0.38686487 0.28025386 -0.0013595964 0.013646194 0.4412379 -0.3599269
0.43696803 -0.32152694 -0.20518929 0.37986133 0.40762842 0.43803164 -0.094528936 -0.11795718
-0.16200867 0.06538865 -0.24526416 -0.2617202 0.47501856 0.18348563 -0.3240219 0.08578251
00000000: c39b 8a3e 48ae 02bf e0f1 283d 6bde 06be
00000010: f9d8 0bbe ae3b d63d 22d7 ea3e f6db 4abe
00000020: 4c16 57be 8dc9 c2be bdb2 a1be 95c1 ae3d
00000030: 2cdc 953e b801 743e a90b 703e 74f1 4a3e
00000040: 7711 91be 74c2 323d a8c5 b9be b39b 06be
00000050: 0680 f03d 04e9 56be 2a29 5bbe 02c3 8e3e
00000060: 8a1b eb3d 78e1 a63d 3748 cf3e 9b9c f73e
00000070: c3ba d5be 7082 cb3e 2d02 2c3d 33dd e53e
00000080: cea8 bf3e cb11 c23e 1a88 0fbe 4680 a93d
00000090: 1491 dc3d 70ec 4d3e 1e4d edbe b8b6 79be
000000a0: 6c0c ee3d 1891 e33e 2713 c63e 6f7d 8f3e
000000b0: 7c34 b2ba 4994 5f3c efe9 e13e 5748 b8be
000000c0: 46ba df3e 2e9f a4be 241d 52be 2f7d c23e
000000d0: acb4 d03e af45 e03e 6398 c1bd 8993 f1bd
000000e0: 9ae5 25be 7cea 853d 8726 7bbe 3100 86be
000000f0: a235 f33e a8e3 3b3e 33e6 a5be beae af3d

conv2.att_src f4 [1, 1, 64]
0.44281107 -0.05296489 -0.81956196 0.5088441 0.41663206 0.52527106 -0.31898323 -0.44638476
-0.8920903 -0.20353678 -0.39652547 -0.30980864 0.62644106 -0.19467117 0.66917324 -0.0054894434
-0.4955502 0.6884425 0.59963155 0.028579487 -0.50753546 0.48451295 -0.06874492 -0.16428691
-0.13958094 -0.24550018 0.2954007 -0.12742746 0.7496969 0.44177794 0.6320978 -0.71173877
-0.65309244 0.034944907 0.5168925 0.098470494 -0.65424603 0.8960841 0.05964956 -0.2885208
0.7405898 -0.102057815 -0.007776981 0.62768275 0.8257525 0.16359223 -0.29658803 -0.57089204
-0.305874 -0.6596264 -0.70676994 -0.28239006 0.7676774 -0.69833153 0.1993425 0.84918666
-0.32569346 0.6342033 0.5415771 0.08448566 0.5874591 -0.5286072 0.10907187 -0.74049383
00000000: 22b8 e23e b6f1 58bd d0ce 51bf 9b43 023f
00000010: cc50 d53e 2a78 063f c551 a3be 8b8c e4be
00000020: 0860 64bf f26b 50be 6305 cbbe 3d9f 9ebe
00000030: 715e 203f e157 47be f04e 2b3f cae0 b3bb
00000040: c1b8 fdbe c53d 303f 7481 193f 871f ea3c
00000050: d8ed 01bf 1512 f83e 23ca 8cbd d43a 28be
00000060: 4eee 0ebe 6664 7bbe c33e 973e 587c 02be
00000070: 23ec 3f3f b830 e23e 29d1 213f 8334 36bf
00000080: 1131 27bf 6422 0f3d 1153 043f e6aa c93d
00000090: ab7c 27bf c465 653f 1953 743d 00b9 93be
000000a0: 4b97 3d3f b003 d1bd 0cd6 febb d1af 203f
000000b0: 8464 533f b984 273e 63da 97be fb25 12bf
000000c0: 849b 9cbe 47dd 28bf e0ee 34bf 6e95 90be
000000d0: 8286 443f dbc5 32bf 7120 4c3e 4c64 593f
000000e0: 4bc1 a6be 265b 223f cca4 0a3f d106 ad3d
000000f0: b863 163f cd52 07bf 1361 df3d 0191 3dbf

conv2.att_dst f4 [1, 1, 64]
-0.06948313 0.2574809 -0.38874638 0.46476385 0.10206709 0.0085106995 -0.06414434 0.18698847
-0.20596303 -0.085093796 0.4819598 0.22681503 -0.04619719 0.07225069 -0.06145896 -0.19571167
0.075110115 0.12182955 0.14685993 0.31647956 -0.1661597 -0.1649088 0.30643892 0.288937
-0.009315756 0.21572049 0.42360055 0.18783824 0.19776894 -0.25760284 0.20054445 -0.42650902
-0.024268849 0.44033167 -0.45662257 0.14503658 0.28072575 -0.18722512 0.28294575 0.04204209
0.029329943 -0.3034815 -0.2342053 0.019414062 0.013046983 0.0023685496 -0.03147307 -0.6420007
-0.37093705 -0.34092245 -0.07661368 0.18325184 -0.25498775 0.41605362 -0.47305468 -0.33048868
-0.05781328 -0.2166516 -0.22128391 -0.23102151 0.085128576 0.14422996 0.039043892 0.4946898
00000000: 2c4d 8ebd 89d4 833e c409 c7be 87f5 ed3e
00000010: 8d08 d13d 7670 0b3c 1c5e 83bd e879 3f3e
00000020: f9e7 52be a845 aebd 6fc3 f63e 3342 683e
00000030: 4439 3dbd 2bf8 933d 64bc 7bbd a468 48be
00000040: 55d3 993d c581 f93d 7362 163e 9c09 a23e
00000050: c525 2abe dadd 28be 90e5 9c3e 8def 933e
00000060: 1da1 18bc d5e5 5c3e 2ce2 d83e ab58 403e
00000070: f183 4a3e 85e4 83be 865b 4d3e 645f dabe
00000080: 77cf c6bc 2773 e13e 6fca e9be 7884 143e
00000090: 49bb 8f3e f1b7 3fbe 44de 903e 5434 2c3d
000000a0: 5945 f03c ed61 9bbe 84d3 6fbe 3d0a 9f3c
000000b0: 03c3 553c ab39 1b3b e8e9 00bd 285a 24bf
000000c0: 76eb bdbe 638d aebe a2e7 9cbd 5fa6 3b3e
000000d0: c18d 82be fb04 d53e 3934 f2be d035 a9be
000000e0: 9ecd 6cbd ebd9 5dbe 4098 62be e790 6cbe
000000f0: e457 ae3d 05b1 133e 7dec 1f3d fb47 fd3e

conv2.att_edge f4 [1, 1, 64]
-0.21906354 -0.15193735 -0.36590856 0.2713252 -0.004708384 -0.27374735 0.35196817 0.06104083
0.23248143 0.0058353404 0.35344636 -0.11042279 0.03492067 0.12783444 0.29911822 0.29279262
0.03764276 0.21547534 0.26822758 0.08202736 0.42443594 0.017774682 0.11721336 0.17626163
0.387158 -0.30725893 0.1160403 -0.38895994 -0.006246051 0.11826574 -0.37209818 -0.24512185
0.30485153 -0.41234237 0.18855946 -0.0046222764 -0.29782972 0.0056606587 -0.023995962 -0.3098584
0.2837307 -0.3846012 0.15854613 0.119364716 0.37954435 -0.11128075 0.35038406 -0.16234586
-0.06499468 0.3826128 -0.24191137 -0.004784321 0.2249827 0.06765535 0.17823008 -0.39338234
0.11012197 -0.34650812 0.12759984 0.08946279 -0.3551758 -0.36095852 -0.37378055 0.1208518
00000000: 3152 60be 7795 1bbe 5e58 bbbe 23eb 8a3e
00000010: ca48 9abb 9d28 8cbe 2c35 b43e f305 7a3d
00000020: 9d0f 6e3e 6236 bf3b ecf6 b43e 5825 e2bd
00000030: fa08 0f3d 08e7 023e 0626 993e eae8 953e
00000040: 4b2f 1a3d 91a5 5c3e 2055 893e f6fd a73d
00000050: ab4f d93e 369c 913c 8f0d f03d ee7d 343e
00000060: 9339 c63e 0b51 9dbe 89a6 ed3d c225 c7be
00000070: acab ccbb 4f35 f23d a783 bebe 3901 7bbe
00000080: 8015 9c3e 8a1e d3be bb15 413e 7776 97bb
00000090: 237d 98be 0c7d b93b 2e93 c4bc c3a5 9ebe
000000a0: 2645 913e 73ea c4be eb59 223e 7d75 f43d
000000b0: a353 c23e 29e7 e3bd 8a65 b33e fe3d 26be
000000c0: ee1b 85bd d3e5 c33e 9db7 77be cbc5 9cbb
000000d0: dd61 663e e38e 8a3d f281 363e 6969 c9be
000000e0: a187 e13d 8369 b1be 88a9 023e 4438 b73d
000000f0: 9ad9 b5be 8ecf b8be 2a60 bfbe 2681 f73d

conv2.bias f4 [64]
-0.0021722545 -0.019093039 -0.0061676125 0.0081811715 -0.0014319771 -0.030001203 -0.028767189 -0.015295896
-0.008287537 0.015646989 -0.0067182328 0.0011461172 0.0075946893 0.026865229 -0.01183265 -0.0074000615
-0.029297011 0.002242921 0.008324464 -0.009543681 -0.021557935 -0.012558938 0.006535188 -0.011674456
0.0025355264 0.008286648 -0.0015165522 -0.026192082 -0.013983104 -0.012341375 -0.0040049828 -0.0068019126
-0.0059605157 -0.01910292 0.0052774013 -0.021568617 -0.009527719 0.0111250505 -0.0065017603 -0.007506161
-0.022068486 0.012176408 -0.0009697281 0.01087469 0.012456978 0.00028443715 -0.021473682 -0.0055876994
0.022470424 -0.024559168 -0.0063675307 -0.02320496 0.00926329 -0.01191531 0.007642151 -0.013146743
-0.008820142 -0.0024359128 -0.0034437375 -0.0010299043 -0.006199122 -0.013929799 0.0011672186 -0.00011863335
00000000: 625c 0ebb 0169 9cbc af19 cabb 520a 063c
00000010: 2eb1 bbba 15c5 f5bc 2ba9 ebbc a39b 7abc
00000020: 73c8 07bc 1d2e 803c 9f24 dcbb 5039 963a
00000030: dfdc f83b 7814 dc3c bbdd 41bc 377c f2bb
00000040: 4900 f0bc f8fd 123b 5563 083c 195d 1cbc
00000050: 449a b0bc 01c4 4dbc 2125 d63b 3846 3fbc
00000060: 132b 263b b9c4 073c 0cc7 c6ba c790 d6bc
00000070: 6419 65bc 7b33 4abc 3b3c 83bb 94e2 debb
00000080: 6e50 c3bb ba7d 9cbc 0dee ac3b abb0 b0bc
00000090: 261a 1cbc d845 363c b80c d5bb 3ef6 f5bb
000000a0: f8c8 b4bc 8f7f 473c 5a35 7eba c12b 323c
000000b0: 5a18 4c3c 8220 9539 93e9 afbc 0519 b7bb
000000c0: e513 b83c 4f30 c9bc b8a6 d0bb 5418 bebc
000000d0: 0ec5 173c 6f38 43bc 026b fa3b 7065 57bc
000000e0: 5b82 10bc d6a3 1fbb 54b0 61bb dbfd 86ba
000000f0: 0122 cbbb d039 64bc 5bfd 983a cbca f8b8

conv2.lin_src.weight f4 [64, 64]
0.027755246 -0.037724104 0.12612753 -0.03218153 0.2538786 -0.032918114 0.030043885 -0.04463044
0.4806062 0.16052327 -0.17171346 0.23271061 0.3156115 0.1451695 0.16306368 0.35596228
0.08341324 0.025992492 0.15099473 0.058187068 0.008047239 0.078127116 0.019255087 0.12896977
0.014054326 -0.16896082 0.17187414 0.061514396 -0.11513758 -0.041417103 -0.1454338 -0.1614471
-0.07317284 0.22571401 0.021119434 0.020907493 0.14479022 -0.09308005 -0.15251836 -0.38710085
-0.057418346 -0.2079698 -0.17710292 -0.06435267 -0.19693571 0.010769397 -0.052844755 0.26348642
0.13300282 0.16144194 -0.09898712 -0.10735765 0.25660375 0.06734483 -0.39599285 0.1325719
0.12219527 -0.09259554 -0.2032891 -0.48568997 -0.121806204 0.043980826 -0.3476741 0.33937815
-0.009556644 0.13072902 0.13728058 -0.17955625 0.20263301 0.17680797 -0.13356428 -0.098447226
-0.2574908 -0.09720511 0.02642794 0.4081549 0.11928246 0.17021286 0.11493283 0.1786048
-0.28713697 -0.024174215 0.11306219 0.057571337 -0.19055235 0.18483888 0.073666945 0.089286365
0.10477978 0.12435372 -0.06942932 0.1301784 0.0084865475 -0.043368354 -0.20840101 0.2650128
0.07772599 0.08592887 -0.16172874 0.051289786 0.3030911 0.18346603 -0.21349688 -0.14750902
-0.1381633 0.07251342 -0.13924848 0.008370082 -0.03794149 -0.022443458 0.046041455 -0.05764712
-0.15396918 0.14675425 -0.15256415 0.055030182 -0.1596497 0.10414262 0.038434617 -0.13277857
-0.1812199 -0.2330537 0.10916635 -0.06792101 -0.1991454 -0.17571743 0.073955946 -0.018479876
-0.12264279 0.069923125 0.56822336 0.14815474 -0.113589585 -0.021124402 -0.17761305 -0.5346283
0.2336533 -0.5285097 -0.010636568 -0.11310247 -0.74987787 -0.11740352 0.06513587 -0.15669404
0.28941172 -0.49810976 -0.17196064 -0.08627255 -0.22563721 -0.46109128 -0.27023885 0.064394444
0.038867313 0.17430344 -0.054746665 -0.5856444 -0.25744936 0.107159935 0.017181106 -0.1574462
-0.043100253 -0.079581596 -0.2510594 -0.015466543 -0.028435234 0.0302853 -0.15663607 0.053970072
-0.043756954 -0.0952258 -0.28093374 -0.03869648 0.038961794 -0.11812528 -0.15318426 -0.16798466
-0.22250459 -0.08839048 -0.7231901 -0.29588753 0.032476403 -0.23880687 0.42990547 -0.32261574
-0.3977253 -0.014731317 -0.03484504 0.049109142 0.30919835 0.15199678 0.08359569 -0.8408261
0.117618084 -0.11794602 -0.10906861 0.08405804 0.14259844 0.04234561 -0.172923 -0.06072277
-0.289339 -0.22067878 0.15631445 0.47516486 0.081809826 -0.11378099 0.145969 0.12965393
-0.16441454 0.22909881 0.06126147 0.100125335 -0.011342177 -0.04312978 0.20854013 0.28000635
-0.06653064 0.14057481 -0.036867063 0.028553527 0.051761158 0.08002782 -0.1585706 0.1597822
0.1790428 -0.17901428 0.07395774 -0.2097751 0.21040803 -0.23869528 -0.04274808 0.144876
0.28326005 -0.096478544 -0.15291761 0.02904368 0.022511179 0.036778465 -0.04009463 0.15935121
0.01085999 -0.1688486 -0.17390056 -0.15609685 -0.13903259 -0.13921767 -0.15778328 0.03114776
0.0051483354 0.008065094 0.111078694 -0.12890661 0.062084183 -0.034149814 0.10506347 0.16618392
00000000: f85e e33c 9784 1abd 9327 013e c8d0 03bd
00000010: 60fc 813e 25d5 06bd 981e f63c 69ce 36bd
00000020: 0412 f63e 3660 243e a7d5 2fbe b14b 6e3e
00000030: d597 a13e 50a7 143e 2afa 263e b040 b63e
00000040: 90d4 aa3d 35ee d43c 5d9e 1a3e 9055 6e3d
00000050: 91d8 033c 1c01 a03d d8bc 9d3c a710 043e
00000060: 1e44 663c 1104 2dbe c6ff 2f3e 85f6 7b3d
00000070: 40cd ebbd fba4 29bd 99ec 14be 6352 25be
00000080: a4db 95bd 9321 673e aa02 ad3c 3146 ab3c
00000090: e343 143e c1a0 bebd c62d 1cbe 1532 c6be
000000a0: 802f 6bbd 09f6 54be 785a 35be 55cb 83bd
000000b0: 84a9 49be 2072 303c be73 58bd b1e7 863e
000000c0: e431 083e 0951 253e c2b9 cabd 54de dbbd
000000d0: 9161 833e 16ec 893d 93bf cabe eec0 073e
000000e0: 8441 fa3d bba2 bdbd 052b 50be 5bac f8be
000000f0: 8875 f9bd 3d25 343d 5702 b2be f9c2 ad3e
00000100: 7893 1cbc d4dd 053e 4893 0c3e 98dd 37be
00000110: 077f 4f3e 260d 353e 13c5 08be b39e c9bd
00000120: d6d5 83be 7913 c7bd 687f d83c aef9 d03e
00000130: 5d4a f43d 484c 2e3e e761 eb3d 2de4 363e
00000140: 9e03 93be 0109 c6bc 268d e73d eccf 6b3d
00000150: 2820 43be 6746 3d3e b2de 963d c5db b63d
00000160: c896 d63d 2aad fe3d f630 8ebd 7d4d 053e
00000170: 290b 0b3c 04a3 31bd 1367 55be c2af 873e
00000180: ce2e 9f3d 7afb af3d 389c 25be 3d15 523d
00000190: c22e 9b3e 85de 3b3e ed9e 5abe 9b0c 17be
000001a0: ae7a 0dbe ea81 943d 2797 0ebe ab22 093c
000001b0: 8968 1bbd 58db b7bc f795 3c3d 631f 6cbd
000001c0: 19aa 1dbe bf46 163e c739 1cbe 5467 613d
000001d0: 367b 23be ba48 d53d 9e6d 1d3d 1bf7 07be
000001e0: b691 39be a1a5 6ebe 9b92 df3d 2c1a 8bbd
000001f0: c6ec 4bbe 45ef 33be 3776 973d 1c63 97bc
00000200: 252c fbbd db33 8f3d 1677 113f e0b5 173e
00000210: a8a1 e8bd 150d adbc 32e0 35be 66dd 08bf
00000220: d042 6f3e 694c 07bf 0045 2ebc 45a2 e7bd
00000230: fff7 3fbf 4271 f0bd f465 853d 6774 20be
00000240: c62d 943e 3e08 ffbe 7316 30be aaaf b0bd
00000250: 710d 67be 2814 ecbe bf5c 8abe 3ce1 833d
00000260: 5533 1f3d 9a7c 323e 0a3e 60bd cbec 15bf
00000270: 67d0 83be ab76 db3d 64bf 8c3c 9439 21be
00000280: e489 30bd adfb a2bd dc8a 80be 6267 7dbc
00000290: 02f1 e8bc e118 f83c 3565 20be b90f 5d3d
000002a0: 7e3a 33bd bf05 c3bd 8cd6 8fbe 3380 1ebd
000002b0: 6796 1f3d abeb f1bd 56dc 1cbe 2c04 2cbe
000002c0: 3ed8 63be 1106 b5bd fd22 39bf 927e 97be
000002d0: fa05 053d ca89 74be 921c dc3e e42d a5be
000002e0: a7a2 cbbe 9f5b 71bc acb9 0ebd ab26 493d
000002f0: 3f4f 9e3e 0ba5 1b3e 3834 ab3d 6140 57bf
00000300: c0e1 f03d af8d f1bd 5d5f dfbd 9f26 ac3d
00000310: 5305 123e 9772 2d3d ba12 31be 70b8 78bd
00000320: 3e24 94be 9ef9 61be e510 203e cf48 f33e
00000330: e98b a73d 0206 e9bd e678 153e 00c4 043e
00000340: 495c 28be e198 6a3e 4fed 7a3d 830e cd3d
00000350: 8ad4 39bc daa8 30bd 8b8b 553e fe5c 8f3e
00000360: 3741 88bd d8f2 0f3e eb01 17bd 16e9 e93c
00000370: 8203 543d a0e5 a33d 5560 22be f29d 233e
00000380: ff56 373e 854f 37be 2877 973d 49cf 56be
00000390: 3475 573e 896c 74be 9c18 2fbd 605a 143e
000003a0: 7607 913e 8b96 c5bd 6f96 1cbe 03ed ed3c
000003b0: 5d69 b83c 04a5 163d 443a 24bd f72c 233e
000003c0: 19ee 313c a6e6 2cbe fd12 32be dad7 1fbe
000003d0: 8f5e 0ebe 148f 0ebe f191 21be 9629 ff3c
000003e0: 5eb3 a83b 7523 043c 3a7d e33d 1800 04be
000003f0: fc4b 7e3d ade0 0bbd 842b d73d 1e2c 2a3e

conv2.lin_dst.weight f4 [64, 64]
0.027755246 -0.037724104 0.12612753 -0.03218153 0.2538786 -0.032918114 0.030043885 -0.04463044
0.4806062 0.16052327 -0.17171346 0.23271061 0.3156115 0.1451695 0.16306368 0.35596228
0.08341324 0.025992492 0.15099473 0.058187068 0.008047239 0.078127116 0.019255087 0.12896977
0.014054326 -0.16896082 0.17187414 0.061514396 -0.11513758 -0.041417103 -0.1454338 -0.1614471
-0.07317284 0.22571401 0.021119434 0.020907493 0.14479022 -0.09308005 -0.15251836 -0.38710085
-0.057418346 -0.2079698 -0.17710292 -0.06435267 -0.19693571 0.010769397 -0.052844755 0.26348642
0.13300282 0.16144194 -0.09898712 -0.10735765 0.25660375 0.06734483 -0.39599285 0.1325719
0.12219527 -0.09259554 -0.2032891 -0.48568997 -0.121806204 0.043980826 -0.3476741 0.33937815
-0.009556644 0.13072902 0.13728058 -0.17955625 0.20263301 0.17680797 -0.13356428 -0.098447226
-0.2574908 -0.09720511 0.02642794 0.4081549 0.11928246 0.17021286 0.11493283 0.1786048
-0.28713697 -0.024174215 0.11306219 0.057571337 -0.19055235 0.18483888 0.073666945 0.089286365
0.10477978 0.12435372 -0.06942932 0.1301784 0.0084865475 -0.043368354 -0.20840101 0.2650128
0.07772599 0.08592887 -0.16172874 0.051289786 0.3030911 0.18346603 -0.21349688 -0.14750902
-0.1381633 0.07251342 -0.13924848 0.008370082 -0.03794149 -0.022443458 0.046041455 -0.05764712
-0.15396918 0.14675425 -0.15256415 0.055030182 -0.1596497 0.10414262 0.038434617 -0.13277857
-0.1812199 -0.2330537 0.10916635 -0.06792101 -0.1991454 -0.17571743 0.073955946 -0.018479876
-0.12264279 0.069923125 0.56822336 0.14815474 -0.113589585 -0.021124402 -0.17761305 -0.5346283
0.2336533 -0.5285097 -0.010636568 -0.11310247 -0.74987787 -0.11740352 0.06513587 -0.15669404
0.28941172 -0.49810976 -0.17196064 -0.08627255 -0.22563721 -0.46109128 -0.27023885 0.064394444
0.038867313 0.17430344 -0.054746665 -0.5856444 -0.25744936 0.107159935 0.017181106 -0.1574462
-0.043100253 -0.079581596 -0.2510594 -0.015466543 -0.028435234 0.0302853 -0.15663607 0.053970072
-0.043756954 -0.0952258 -0.28093374 -0.03869648 0.038961794 -0.11812528 -0.15318426 -0.16798466
-0.22250459 -0.08839048 -0.7231901 -0.29588753 0.032476403 -0.23880687 0.42990547 -0.32261574
-0.3977253 -0.014731317 -0.03484504 0.049109142 0.30919835 0.15199678 0.08359569 -0.8408261
0.117618084 -0.11794602 -0.10906861 0.08405804 0.14259844 0.04234561 -0.172923 -0.06072277
-0.289339 -0.22067878 0.15631445 0.47516486 0.081809826 -0.11378099 0.145969 0.12965393
-0.16441454 0.22909881 0.06126147 0.100125335 -0.011342177 -0.04312978 0.20854013 0.28000635
-0.06653064 0.14057481 -0.036867063 0.028553527 0.051761158 0.08002782 -0.1585706 0.1597822
0.1790428 -0.17901428 0.07395774 -0.2097751 0.21040803 -0.23869528 -0.04274808 0.144876
0.28326005 -0.096478544 -0.15291761 0.02904368 0.022511179 0.036778465 -0.04009463 0.15935121
0.01085999 -0.1688486 -0.17390056 -0.15609685 -0.13903259 -0.13921767 -0.15778328 0.03114776
0.0051483354 0.008065094 0.111078694 -0.12890661 0.062084183 -0.034149814 0.10506347 0.16618392
00000000: f85e e33c 9784 1abd 9327 013e c8d0 03bd
00000010: 60fc 813e 25d5 06bd 981e f63c 69ce 36bd
00000020: 0412 f63e 3660 243e a7d5 2fbe b14b 6e3e
00000030: d597 a13e 50a7 143e 2afa 263e b040 b63e
00000040: 90d4 aa3d 35ee d43c 5d9e 1a3e 9055 6e3d
00000050: 91d8 033c 1c01 a03d d8bc 9d3c a710 043e
00000060: 1e44 663c 1104 2dbe c6ff 2f3e 85f6 7b3d
00000070: 40cd ebbd fba4 29bd 99ec 14be 6352 25be
00000080: a4db 95bd 9321 673e aa02 ad3c 3146 ab3c
00000090: e343 143e c1a0 bebd c62d 1cbe 1532 c6be
000000a0: 802f 6bbd 09f6 54be 785a 35be 55cb 83bd
000000b0: 84a9 49be 2072 303c be73 58bd b1e7 863e
000000c0: e431 083e 0951 253e c2b9 cabd 54de dbbd
000000d0: 9161 833e 16ec 893d 93bf cabe eec0 073e
000000e0: 8441 fa3d bba2 bdbd 052b 50be 5bac f8be
000000f0: 8875 f9bd 3d25 343d 5702 b2be f9c2 ad3e
00000100: 7893 1cbc d4dd 053e 4893 0c3e 98dd 37be
00000110: 077f 4f3e 260d 353e 13c5 08be b39e c9bd
00000120: d6d5 83be 7913 c7bd 687f d83c aef9 d03e
00000130: 5d4a f43d 484c 2e3e e761 eb3d 2de4 363e
00000140: 9e03 93be 0109 c6bc 268d e73d eccf 6b3d
00000150: 2820 43be 6746 3d3e b2de 963d c5db b63d
00000160: c896 d63d 2aad fe3d f630 8ebd 7d4d 053e
00000170: 290b 0b3c 04a3 31bd 1367 55be c2af 873e
00000180: ce2e 9f3d 7afb af3d 389c 25be 3d15 523d
00000190: c22e 9b3e 85de 3b3e ed9e 5abe 9b0c 17be
000001a0: ae7a 0dbe ea81 943d 2797 0ebe ab22 093c
000001b0: 8968 1bbd 58db b7bc f795 3c3d 631f 6cbd
000001c0: 19aa 1dbe bf46 163e c739 1cbe 5467 613d
000001d0: 367b 23be ba48 d53d 9e6d 1d3d 1bf7 07be
000001e0: b691 39be a1a5 6ebe 9b92 df3d 2c1a 8bbd
000001f0: c6ec 4bbe 45ef 33be 3776 973d 1c63 97bc
00000200: 252c fbbd db33 8f3d 1677 113f e0b5 173e
00000210: a8a1 e8bd 150d adbc 32e0 35be 66dd 08bf
00000220: d042 6f3e 694c 07bf 0045 2ebc 45a2 e7bd
00000230: fff7 3fbf 4271 f0bd f465 853d 6774 20be
00000240: c62d 943e 3e08 ffbe 7316 30be aaaf b0bd
00000250: 710d 67be 2814 ecbe bf5c 8abe 3ce1 833d
00000260: 5533 1f3d 9a7c 323e 0a3e 60bd cbec 15bf
00000270: 67d0 83be ab76 db3d 64bf 8c3c 9439 21be
00000280: e489 30bd adfb a2bd dc8a 80be 6267 7dbc
00000290: 02f1 e8bc e118 f83c 3565 20be b90f 5d3d
000002a0: 7e3a 33bd bf05 c3bd 8cd6 8fbe 3380 1ebd
000002b0: 6796 1f3d abeb f1bd 56dc 1cbe 2c04 2cbe
000002c0: 3ed8 63be 1106 b5bd fd22 39bf 927e 97be
000002d0: fa05 053d ca89 74be 921c dc3e e42d a5be
000002e0: a7a2 cbbe 9f5b 71bc acb9 0ebd ab26 493d
000002f0: 3f4f 9e3e 0ba5 1b3e 3834 ab3d 6140 57bf
00000300: c0e1 f03d af8d f1bd 5d5f dfbd 9f26 ac3d
00000310: 5305 123e 9772 2d3d ba12 31be 70b8 78bd
00000320: 3e24 94be 9ef9 61be e510 203e cf48 f33e
00000330: e98b a73d 0206 e9bd e678 153e 00c4 043e
00000340: 495c 28be e198 6a3e 4fed 7a3d 830e cd3d
00000350: 8ad4 39bc daa8 30bd 8b8b 553e fe5c 8f3e
00000360: 3741 88bd d8f2 0f3e eb01 17bd 16e9 e93c
00000370: 8203 543d a0e5 a33d 5560 22be f29d 233e
00000380: ff56 373e 854f 37be 2877 973d 49cf 56be
00000390: 3475 573e 896c 74be 9c18 2fbd 605a 143e
000003a0: 7607 913e 8b96 c5bd 6f96 1cbe 03ed ed3c
000003b0: 5d69 b83c 04a5 163d 443a 24bd f72c 233e
000003c0: 19ee 313c a6e6 2cbe fd12 32be dad7 1fbe
000003d0: 8f5e 0ebe 148f 0ebe f191 21be 9629 ff3c
000003e0: 5eb3 a83b 7523 043c 3a7d e33d 1800 04be
000003f0: fc4b 7e3d ade0 0bbd 842b d73d 1e2c 2a3e

conv2.lin_edge.weight f4 [64, 1]
-0.16206293 -0.33721706 -0.37311426 0.15203784 0.22729336 -0.32252598 0.22008638 -0.057243384
0.3053284 0.24666364 0.31782404 0.1828296 -0.20530006 -0.0017683177 0.08060416 0.30671644
0.21165626 0.28242427 0.4070629 0.2886149 0.3085533 -0.14840421 0.108960666 0.08061498
0.17841586 -0.34311107 -0.010582129 -0.44261754 -0.16208878 -0.07153216 -0.07822351 -0.22208759
0.22545284 -0.41905856 0.24609436 -0.08971992 -0.279904 -0.21708061 0.07861049 -0.2683467
0.34155786 -0.28284562 -0.12500091 0.045871187 0.095604904 -0.021568907 0.17716497 -0.022327598
0.16248417 0.3961337 -0.30379495 -0.15462917 -0.01288931 0.2707802 -0.0012128917 -0.36201072
-0.056919962 -0.15335703 0.17316464 0.27023843 -0.30320036 -0.4033623 -0.15041372 0.344222
00000000: d3f3 25be b7a7 acbe d508 bfbe cfaf 1b3e
00000010: 97bf 683e 2022 a5be 535e 613e 0a78 6abd
00000020: 0154 9c3e 6595 7c3e d5b9 a23e af37 3b3e
00000030: 2e3a 52be e5c6 e7ba cb13 a53d f009 9d3e
00000040: 6bbc 583e ea99 903e 8c6a d03e 55c5 933e
00000050: b3fa 9d3e 46f7 17be c526 df3d 7719 a53d
00000060: a6b2 363e 41ac afbe aa60 2dbc c49e e2be
00000070: 9afa 25be 747f 92bd a633 a0bd ee6a 63be
00000080: 1cdd 663e d88e d6be 2900 7c3e 14bf b7bd
00000090: 944f 8fbe 614a 5ebe 89fe a03d bd64 89be
000000a0: ace0 ae3e 24d1 90be 3d00 00be 6de3 3b3d
000000b0: 81cc c33d 47b1 b0bc bc6a 353e 5ee8 b6bc
000000c0: 4062 263e 09d2 ca3e 038b 9bbe 1c57 1ebe
000000d0: af2d 53bc b4a3 8a3e e4f9 9eba 7859 b9be
000000e0: e824 69bd a009 1dbe 1252 313e b15c 8a3e
000000f0: 143d 9bbe 8185 cebe 0e06 1abe de3d b03e

conv3.att_src f4 [1, 1, 64]
-0.1443792 0.20077366 -0.6345564 -0.01011576 -0.09882294 -0.11564421 0.18911578 0.1351789
0.31758156 0.2620997 0.170677 -0.18642655 0.18348089 -0.0022255983 -0.13794939 0.64542925
0.05426193 0.30265743 -0.22371748 0.17460938 -0.08963602 -0.06612406 -0.007024866 -0.1243257
-0.32794496 -0.02242969 0.23119071 -0.48396313 0.72117096 0.10730266 -0.12898734 -0.056528438
-0.10488698 -0.20780553 0.15665986 0.230314 0.26281166 0.16817425 -0.05281068 0.30809554
-0.30857718 0.08377104 -0.16480023 -0.11531157 0.06360052 -0.41796488 0.20264418 0.4233743
0.066573925 0.09439921 0.51599896 0.16723554 0.4453311 -0.37480497 -0.086915135 0.33210778
0.16481744 -0.19923337 0.23768993 -0.44096598 -0.025806198 -0.07939339 -0.507198 0.44251695
00000000: 24d8 13be 9c97 4d3e 4a72 22bf 93bc 25bc
00000010: ae63 cabd dfd6 ecbd 91a7 413e 566c 0a3e
00000020: 0d9a a23e ef31 863e f4c5 2e3e 9ae6 3ebe
00000030: 6ae2 3b3e 58db 11bb 9b42 0dbe da3a 253f
00000040: c241 5e3d eaf5 9a3e 3216 65be cdcc 323e
00000050: 1793 b7bd 0d6c 87bd d930 e6bb 799e febd
00000060: 67e8 a7be 78be b7bc 42bd 6c3e 04ca f7be
00000070: a99e 383f 7fc1 db3d 4215 04be 5d8a 67bd
00000080: fcce d6bd f9ca 54be 716b 203e 6fd7 6b3e
00000090: 408f 863e df35 2c3e 0350 58bd b3be 9d3e
000000a0: d4fd 9dbe 2790 ab3d 64c1 28be 7928 ecbd
000000b0: fd40 823d 7eff d5be f581 4f3e 84c4 d83e
000000c0: e957 883d 5f54 c13d 8218 043f cb3f 2b3e
000000d0: 7002 e43e 70e6 bfbe 9000 b2bd 080a aa3e
000000e0: e7c5 283e d503 4cbe fd64 733e 4bc6 e1be
000000f0: 8567 d3bc 0099 a2bd bad7 01bf 9591 e23e

conv3.att_dst f4 [1, 1, 64]
-0.041053407 -0.25870588 -0.27355036 0.29925647 -0.028542325 0.3051341 -0.2059688 0.0038311118
0.29720482 -0.3604292 0.26935875 -0.1919668 0.13620047 -0.22455671 0.18150127 0.11938792
0.041497048 -0.21825208 0.047860228 -0.23644234 0.05787498 0.20960106 0.28289255 -0.18548727
-0.09288785 -0.08845169 0.30136618 -0.25039604 0.08125961 -0.11733566 0.016246878 -0.08885428
0.037862588 -0.3322258 0.17886735 -0.07045472 -0.11422244 -0.20510805 -0.091953665 0.11634059
0.03374875 -0.12097348 -0.052884705 -0.3670058 -0.09970724 0.13814664 -0.068101555 -0.07788035
-0.3656842 0.14489183 -0.32360503 -0.10649576 -0.11706737 -0.09278254 0.20716406 -0.011885806
0.1215392 0.26350573 -0.25665155 -0.31519863 0.096702546 0.05239136 -0.100261316 0.18358535
00000000: 9e27 28bd 1975 84be cb0e 8cbe 2538 993e
00000010: 98d1 e9bc 893a 9c3e 7ce9 52be 6413 7b3b
00000020: 3b2b 983e 2d8a b8be 64e9 893e f292 44be
00000030: 2378 0b3e 32f2 65be 78db 393e a781 f43d
00000040: cff8 293d 797d 5fbe 1609 443d f11d 72be
00000050: 510e 6d3d a9a1 563e 4bd7 903e 60f0 3dbe
00000060: fc3b bebd 2926 b5bd ab4c 9a3e e933 80be
00000070: 706b a63d ae4d f0bd 2c18 853c 3cf9 b5bd
00000080: cd15 1b3d 8019 aabe 0129 373e 904a 90bd
00000090: 74ed e9bd d807 52be 3452 bcbd fa43 ee3d
000000a0: 213c 0a3d f2c0 f7bd a29d 58bd 2fe8 bbbe
000000b0: 4f33 ccbd 5076 0d3e d478 8bbd bc7f 9fbd
000000c0: f63a bbbe 865e 143e 8faf a5be 731a dabd
000000d0: 04c1 efbd c604 bebd d122 543e afbc 42bc
000000e0: 8be9 f83d 39ea 863e d567 83be b761 a1be
000000f0: fc0b c63d 5398 563d ce55 cdbd ccfd 3b3e

conv3.att_edge f4 [1, 1, 64]
0.29954532 -0.15615343 0.24364762 0.36717457 0.36554608 -0.05609923 0.5580058 0.28699902
0.10708826 0.016789008 -0.29386148 0.511922 -0.4562286 -0.26086995 0.23086663 0.22955316
0.3320441 0.18946163 -0.19415872 -0.09328392 0.29600632 0.43302575 -0.35847616 0.25240144
-0.23829484 -0.25532126 0.4244093 -0.1953589 0.1828558 -0.3337825 0.3135598 -0.27801064
0.16108319 -0.30373433 -0.12222118 -0.48070413 -0.4402142 -0.32743034 -0.31642762 -0.46260262
0.38734797 -0.34695435 -0.44635025 0.47098 0.18971716 -0.26355213 0.10680104 0.3488056
0.24205016 0.4294036 0.39787558 -0.09810451 0.41185805 -0.31042412 0.44720423 0.43917826
0.4734747 0.2139061 0.18590242 0.05311831 -0.24411118 -0.23605229 -0.25168103 0.34207064
00000000: 015e 993e afe6 1fbe c37e 793e 4efe bb3e
00000010: db28 bb3e 4ec8 65bd 78d9 0e3f 89f1 923e
00000020: 1751 db3d 1a89 893c 0375 96be 520d 033f
00000030: cc96 e9be bf90 85be 4d68 6c3e fc0f 6b3e
00000040: af01 aa3e 3b02 423e 8bd1 46be a40b bfbd
00000050: 248e 973e 8db5 dd3e 308a b7be c33a 813e
00000060: 9003 74be 78b9 82be 2d4c d93e 2a0c 48be
00000070: 8d3e 3b3e 8ae5 aabe e98a a03e 6957 8ebe
00000080: fef2 243e 1183 9bbe 194f fabd da1e f6be
00000090: c163 e1be f3a4 a7be cd02 a2be 40da ecbe
000000a0: 7952 c63e 00a4 b1be 0588 e4be 4a24 f13e
000000b0: 3745 423e 4ef0 86be 81ba da3d a696 b23e
000000c0: ffdb 773e cada db3e 59b6 cb3e 04eb c8bd
000000d0: 0fdf d23e e9ef 9ebe f4f7 e43e f9db e03e
000000e0: 476b f23e 330a 5b3e 345d 3e3e 9692 593d
000000f0: 48f8 79be b1b7 71be 56dc 80be e223 af3e

conv3.bias f4 [64]
-0.0008762372 0.015464695 -0.012660441 0.018331215 -0.002033941 -0.015403535 0.02205909 0.01966478
0.00425139 -0.017665712 0.01826105 -0.008203138 0.014887105 0.044763263 0.001266586 -0.015779274
0.025667125 0.014493064 -0.037930895 0.017698538 -0.008326611 0.011275456 -0.009764209 0.016445616
0.0070062573 -0.022918161 -0.0064646155 0.033061482 0.007793524 0.037912954 0.0004464842 0.009035737
0.0057146493 0.01698833 0.025827318 -0.0016923585 -0.0057088016 -0.013659209 0.007849989 0.015002508
0.0057983967 0.01940314 -0.005032616 -0.009232887 -0.0010108785 -0.00580772 -0.027784297 0.004333141
0.010683289 -0.010574656 0.0056693754 0.0068634218 0.019875977 0.0014738977 -0.019500617 -0.0067659873
-0.024753235 -0.027219692 0.010761597 -0.036632907 0.0139991855 0.009804707 0.0116314385 0.022331014
00000000: 48b3 65ba a25f 7d3c bd6d 4fbc 582b 963c
00000010: de4b 05bb 1c5f 7cbc 44b5 b43c 0818 a13c
00000020: 3f4f 8b3b afb7 90bc 3398 953c 7466 06bc
00000030: 0be9 733c af59 373d 9303 a63a 8943 81bc
00000040: dd43 d23c 5174 6d3c 6d5d 1bbd 86fc 903c
00000050: 566c 08bc b1bc 383c 10fa 1fbc f5b8 863c
00000060: bf94 e53b debe bbbc 20d5 d3bb 7a6b 073d
00000070: d160 ff3b 9d4a 1b3d 1816 ea39 a10a 143c
00000080: f441 bb3b 1c2b 8b3c d093 d33c 21d2 ddba
00000090: e610 bbbb e0ca 5fbc 3e9d 003c 14cd 753c
000000a0: 7a00 be3b 55f3 9e3c a5e8 a4bb 8945 17bc
000000b0: 747f 84ba b04e bebb e59b e3bc 05fd 8d3b
000000c0: f608 2f3c 5241 2dbc 2bc6 b93b 8ee6 e03b
000000d0: f2d2 a23c cd2f c13a c2bf 9fbc 37b5 ddbb
000000e0: 4cc7 cabc d5fb debc 6951 303c 630c 16bd
000000f0: d75c 653c eca3 203c ca91 3e3c 88ef b63c
