src/saved_weights_test.pt (torch, 299470 bytes, 28 tensors)

conv1.bias f4 [64]
00000000: 5146 a03b 32e5 01bb 1737 cb3b e614 94bb
00000010: 67dd 943a 88a8 55bb d3b3 243b 3ea3 b43b
00000020: 2149 1bbc cdba 89bb 3de7 423b 6a16 24bb
00000030: 56d1 c23b da44 0dbb ddbf 413b 3bac 9139
00000040: 678c 833a 0a52 e73b 3b51 e8ba 5415 083b
00000050: d7b0 893b dca2 753a c07f a1ba e1ba 343c
00000060: ee74 713b 8bc9 96bb 2b98 353b d917 a63a
00000070: f2e7 1dbb c01e 44ba 1cc0 143c 98d5 c4ba
00000080: d8bd ce3b 2447 14b8 ad1c ab3b ed27 ab3b
00000090: 7d79 103c 2867 b795 fdb0 0db9 9e10 613b
000000a0: 91ea 6339 49a0 dd3b 99a0 793b 5cc3 133c
000000b0: 80a5 b13b 3b6e 5839 2fca 0d3c 39af 343b
000000c0: 59c5 11bc 26ad 8439 af89 2eba 6362 37bb
000000d0: f827 183c d574 333c 566f 2aba 4fb3 76ba
000000e0: 49e8 42bb 01e0 28bc 9a8b 633c aeba 9e3a
000000f0: cd96 e3ba 007a 1dbc c399 7d3b 16a4 173c
0.004891195 -0.001982045 0.0062016356 -0.004519093 0.0011357487 -0.0032601673 0.0025131598 0.005512624
-0.0094778845 -0.0042031766 0.002973988 -0.0025037774 0.005945365 -0.0021555931 0.0029563822 0.00027784877
0.001003635 0.0070593404 -0.0017724404 0.0020764666 0.004201989 0.0009370276 -0.0012321398 0.0110308835
0.0036843377 -0.0046016625 0.0027709107 0.0012671902 -0.002409455 -0.0007481389 0.009079006 -0.0015017269
0.006309252 -3.5352205e-05 0.0052219243 0.0052232654 0.008818028 -7.4075863e-26 -0.00013512741 0.003434218
0.0002173579 0.0067634922 0.0038090108 0.009018745 0.0054213405 0.0002064043 0.008654161 0.002757026
-0.008897149 0.00025306008 -0.00066580897 -0.0027982227 0.009286873 0.010953148 -0.00065015757 -0.00094108743
-0.0029740504 -0.010307313 0.013888264 0.0012110078 -0.0017363668 -0.009611607 0.0038696385 0.00925543

conv1.lins.0.weight f4 [64, 10]
00000000: c6c8 733e d43d 0c3e ab8d 06be f6b7 93bd
00000010: 704a 373d 8adc 333e 08d8 4abe 4b64 303d
00000020: 1bfe 78be fd56 663e 8f17 53bc 6338 d0bc
00000030: 00ed 95be b653 e9ba 2c4d 3dbe f280 8a3e
00000040: a7cb 963d d19b f03d 1726 70be d44d 49bd
00000050: 03d0 6cbe 7c17 343e 4838 72be 347e f73d
00000060: 49fa 173e b5d3 e03c c7f1 5d3e 03e8 19be
00000070: 48d5 863d bf6e 683e b19d 0e3e b4d9 ffbd
00000080: 642f 01bd e677 323e 7d81 dabd 56de 48be
00000090: 7853 8e3e f3aa 31be fbf3 213e a2a3 55bd
000000a0: 9385 553e 5399 c73d f97b 4cbe 4f0c 2c3d
000000b0: 56b6 453e 3efe 0ebe 8817 203e f9b3 11bd
000000c0: c23b 4bbe ca81 72be bde5 903e 8a33 7cbe
000000d0: a378 2ebe 4453 c5bd da45 4b3e 48a4 043e
000000e0: c899 4bbe b4fb 0dbe 1f6a 0c3d bd95 75be
000000f0: 0cdb c7bd f99d 4e3e ae3a 103d eaf3 1abe
00000100: 24db 09be 2947 9e3e c64a da38 2326 ccbd
00000110: 2950 193e 2829 f7bd b9b6 203e a507 39be
00000120: d31f a7bd 8a20 403e ed0a 5d3e c85b bb82
00000130: f232 b802 6398 873c b9ad acbb 68f7 f9bd
00000140: 113d 33be 9d87 dbbb a617 7ebd 4363 643e
00000150: dcbf 483d ad73 043c 8233 113d 7b3b 67bd
00000160: bbd7 84be b8ed 40be 4ac0 323d 2050 54be
00000170: a735 71be 23fd e2bd 654e 823e de8f 61bd
00000180: 90c0 9a3d 394d 39be 7e7c ae3d 2ff6 66bc
00000190: 8c57 5f3d 74c3 413e b4fa 28be 9023 bcbd
000001a0: 4ad6 1bbe 5138 d33c d44d 33be 05a3 923e
000001b0: c25c e3bd 9530 4e3e d63d 89bd a961 d33b
000001c0: 4cc2 8fbd 669e d3bd 1294 81be b163 703b
000001d0: 8b65 bbbc 3e01 d03d 728f 23be ca1e 813e
000001e0: d17c 78be abe1 cf3d 74d4 13be 27a5 45be
000001f0: 8c0d cd3d 64ea e3bd 581d 8f3e 0cf3 7e3e
00000200: ceec 09be dae3 75be e53b 993d 2695 423d
00000210: 9275 bf3d 53f6 90bd acee 983e 8d8f 613e
00000220: b1f3 d93d 87b9 213d 12a0 5a3e f4a6 2abc
00000230: ebe8 82be 5cf3 f2bd db9e b63d 8434 913e
00000240: fb29 6e3e 754c 843c 37bb bc3c e595 6ebe
00000250: 2cb7 58be e876 a5bd d945 18bd 8b0f 8f3e
00000260: 5536 cb3d 7837 4d3d eef0 143e 3c1a 9ebb
00000270: 741f 9b3d 75d6 0cbe 4343 7abe de58 a6bd
00000280: 1de1 983e 1704 fc3c 77ea bbbd b4c3 853e
00000290: 9a7b 29be bae1 a0bd 9596 01be 0633 e7ba
000002a0: aabb 383e 9da7 86be fdf5 2b3d 7cc9 913d
000002b0: ad7d d1bc 2565 f6bc f54c 813e 1016 1dbe
000002c0: f5bd 47bd d530 993e cdf0 29bc 6898 ecbd
000002d0: e622 093e 6688 dbbd 9f72 f1bd 4eb7 88be
000002e0: 03b4 f9bd 6c3c 033e 5102 71be 8fc4 9b3d
000002f0: e63d 743e 677c 87be f02f 74bb fc93 f33d
00000300: 04c5 0f3d 831d 7fbe c681 403e 1c2e 383e
00000310: 8e42 f3ba b82d 103e 214f 4abe a185 52be
00000320: ec7b 68bd d4a8 9ebc b964 b93b 590c 6b3b
00000330: becc 8b3b 380d aa82 6045 773b 51ca 98ba
00000340: 2b50 3bbc 5c0e 49bc 0d0e bcbd 5847 1b3e
00000350: 1a3e 7c3c 730c 393d 2355 bdbd 9bf2 263e
00000360: 40de 003e 0561 853e 8de8 963e 8b52 803e
00000370: 9d03 293e e04f 81bc 625a c1bd 4165 b93d
00000380: 1879 7d3b c53a 5b3e e4e5 67ba f118 233c
00000390: 1cbe 3bbe 2a23 34be 8825 1a3e be80 51be
000003a0: c3f3 913d f25a 4a3e 344e 5cbd 6b73 ca3c
000003b0: 437f cd3a 73dd f4bd 7223 3d3d 96ad 06bc
000003c0: 2d6d 5cbe b6c9 833e 667a 1f3d ef6c 823d
000003d0: 54f6 333e 56d0 a3bd 7ce6 adbd 0078 d3bd
000003e0: 0b97 28be 6a44 473e 67fc 38be 3bc9 e33d
000003f0: 4450 2fbd a24e 3f3e f905 0d3b f671 5e39
0.23807058 0.1369546 -0.1313998 -0.07212822 0.044748724 0.17564598 -0.19808972 0.043064397
-0.24315684 0.22494121 -0.012884035 -0.025417512 -0.2928238 -0.0017801437 -0.1848647 0.27051502
0.07363062 0.117484696 -0.2345203 -0.04914649 -0.23126225 0.17587084 -0.23654282 0.12084618
0.1484157 0.0274447 0.21674262 -0.15029912 0.06583649 0.22698496 0.13927342 -0.124926955
-0.031539336 0.1742855 -0.10669229 -0.19616064 0.27798057 -0.17350368 0.15815727 -0.052158006
0.20851736 0.09746041 -0.19969167 0.042003926 0.19307837 -0.13964173 0.15633976 -0.035572026
-0.19847015 -0.23682323 0.28300276 -0.24629036 -0.17038207 -0.09635022 0.19850865 0.12953293
-0.19882882 -0.13865548 0.034280892 -0.23982902 -0.09758577 0.2017745 0.03521221 -0.15132108
-0.13462502 0.30913666 0.00010408978 -0.099682115 0.14971985 -0.12068397 0.15694703 -0.18069322
-0.08160367 0.18762413 0.21586199 -2.752986e-37 2.7065611e-37 0.016552156 -0.005269733 -0.12205392
-0.17503764 -0.006699516 -0.06203427 0.2230349 0.049011096 0.00808422 0.035449512 -0.05645321
-0.2594584 -0.18840683 0.043640412 -0.2073369 -0.23555623 -0.11083438 0.25450435 -0.055068843
0.0755626 -0.18095864 0.08519839 -0.014096781 0.05452685 0.18922216 -0.16501886 -0.091864705
-0.15218464 0.02578369 -0.17510158 0.2864 -0.111016765 0.2013572 -0.067012474 0.006450851
-0.07019481 -0.103329465 -0.2530828 0.0036680514 -0.022875568 0.10156487 -0.15972689 0.25218803
-0.24266364 0.101504646 -0.14436513 -0.19301282 0.100123495 -0.11128691 0.27952075 0.24897403
-0.1346924 -0.240127 0.07482127 0.04750552 0.09348597 -0.070782326 0.29869592 0.22027417
0.106421836 0.039483573 0.21350124 -0.010415781 -0.25568327 -0.11862823 0.08917018 0.2836038
0.23258202 0.016149739 0.02303849 -0.23299368 -0.21163625 -0.0807932 -0.037175987 0.27941546
0.099224724 0.050101727 0.14545032 -0.0048249047 0.075743586 -0.13753684 -0.24439721 -0.08122419
0.29859248 0.030763669 -0.0917558 0.26125872 -0.16551057 -0.07855554 -0.12655099 -0.0017639108
0.18040338 -0.26299754 0.04198264 0.07118508 -0.025572622 -0.030077526 0.25254026 -0.15340447
-0.04876514 0.29920068 -0.010372353 -0.11552507 0.13392219 -0.10719375 -0.1178944 -0.2670235
-0.12192538 0.12816018 -0.2353604 0.0760585 0.23851737 -0.264621 -0.0037260018 0.1189346
0.035099998 -0.24913602 0.18799505 0.1798634 -0.0018559264 0.1407994 -0.19756748 -0.20558788
-0.056758806 -0.019367613 0.005657759 0.0035865514 0.0042663505 -2.4986842e-37 0.003773056 -0.0011656975
-0.011432688 -0.01227149 -0.091823675 0.15163934 0.015395666 0.045177888 -0.09244754 0.16303484
0.12584782 0.26050583 0.29474297 0.25062975 0.16505285 -0.015785158 -0.09441067 0.09052516
0.0038676914 0.21409138 -0.0008846207 0.009954677 -0.1833424 -0.17591539 0.1505338 -0.20459267
0.07126572 0.19761255 -0.053785518 0.024713239 0.0015678186 -0.119563006 0.04617638 -0.008220097
-0.21526022 0.2573983 0.038935088 0.06368434 0.17574435 -0.07998721 -0.08491227 -0.103256226
-0.16463868 0.19459692 -0.18065034 0.11122366 -0.042801157 0.1868234 0.0021518453 0.00021214024

conv1.lins.1.weight f4 [64, 10]
00000000: 24d7 2e3e 1761 b2bd 4efb 08be 2424 a83d
00000010: a886 553e fb1c 13be 2942 e5bd 3da4 453a
00000020: 996f 9bbc 2e19 fb3d 2e7d dc3d 6840 66be
00000030: 045a 893e 6056 86bd 0d16 89bb f283 f73d
00000040: adc4 723e a592 3a3e cff5 8bbe 995d 123e
00000050: 91a4 9f3e 974e 2bbe 890f 643d 3a94 46be
00000060: 0047 8c3e 2c75 f83d bc06 4f3e 9394 883e
00000070: 6103 5d3e 1007 8cbe 21be 883b f573 4bbe
00000080: 60b2 66be 0775 0fbe 7670 133e bb09 7d3e
00000090: fefc 43be cdd9 8a3e bbc7 67be c6ca 7ebe
000000a0: c85a 6c3e 5ad4 9dbd 5d40 91be 994d 5cbe
000000b0: a88b 92bc 55fa b93d 07c4 1d3d edd1 883d
000000c0: 77ce 59be c03e 903e bc8d 033e c33a 813e
000000d0: 7ede 0fbe abcd 50be 1461 253e 4888 3ebe
000000e0: 0cb9 21be 3ebe 3bbd fec4 e33d 3687 fe3d
000000f0: 4067 28be b334 aaba 04b8 bf3d 4c93 323e
00000100: 1942 0e3d 049e 1f3d 5817 f83d b700 8fbe
00000110: 2c59 21bd 78d9 38be 3742 5b3e 9aa0 29be
00000120: 5347 123e b60a 4bbe f0ec 153e cf5e c83d
00000130: 01f7 273e b98a 3abd b5f3 91bd 92f4 2ebc
00000140: 8ab8 4b3e a412 26be 79df f6bd 4897 5f3e
00000150: 0866 53be 0781 25be a854 5cbd 635e 473e
00000160: 98a8 873e 0239 243b 9239 20bd ba46 103c
00000170: 802e c73b 1f9a a13d afe1 243e e512 f13b
00000180: 9512 26be 9df8 5a3e d437 82be b214 8fbd
00000190: ff48 8a3d 5a9b 9abb 5257 df3c e000 363e
000001a0: 82c5 b6bd c2a2 3f3d c337 44bd 812b a23d
000001b0: 44bb 28be 102a 573e 16fd 34be 3280 9d3e
000001c0: d645 383e 1281 ae3d 4c68 2dbe 0934 9f3d
000001d0: 16ea 99bd a10d 4fbe 8262 d53d 1aab 5fbd
000001e0: 03d0 41bd 38b8 3b3e 0690 403d 3b69 e03d
000001f0: 522d 333e 5045 3abd f20f 433e 6150 883c
00000200: 8d5a 99bd 81e2 fabc 2999 dfbc a78b 4d3e
00000210: 1dd7 47bd 9b04 103c 933d 2cbe 8493 ab3d
00000220: 6e75 68bd a23a 8cbd 5c14 2f3e ebe9 c63d
00000230: beba 03be d20e 033e 8fa0 40bd b4eb 693e
00000240: 66fd 74be ed75 cabc 716d 67be c8e6 873e
00000250: 5962 903e 66b3 803e b940 06be 934b 86bd
00000260: eb79 0cbc a633 013e 86e3 63bd f6ed efbd
00000270: d5e1 aabc 6241 08be ba23 adbb 2b44 2b3e
00000280: 6c77 0fbe 77de 283c 045f 933e bcad 06be
00000290: e3c6 84be 63f7 3bbd 425c 333e 38cb 503d
000002a0: 21c0 08be 1a58 863c efc7 303d 05ee 783e
000002b0: 2f6a a53c 95d4 003c 035a 793d 881d c7bc
000002c0: c86e 58be 7926 ef3d 3a16 09be 7dff d73d
000002d0: a0f0 90bc 90b9 13be efa4 3c3e 0732 bf3d
000002e0: a532 5b3e 95c2 4dbe 8008 8d3d 6079 5abe
000002f0: 853d 1f3e 0d6d 833d eb64 edbd 5851 453d
00000300: ec70 173e dd93 db3d 2a88 223e d7e0 65bc
00000310: cdad 85be 8625 42be 99e5 c2bc 9713 923e
00000320: ae23 c13b ae61 beba 3485 013c aeb9 3c3b
00000330: caad 35bc 5a1b dd3a 31fd 303c 012b 503c
00000340: 443d adbb ccef 0b3c a95c f93d 9372 e23c
00000350: 5815 8dbd 6800 113e a466 793e cd6c 5dbe
00000360: ff16 38be 8dc3 83be 3990 b7bc 133e 193e
00000370: 4d97 babd 94da 8bbd cae0 a9bd bdbf ab3d
00000380: 48f9 a53d 75d9 abbd ac2a 74bd afb1 1fbe
00000390: 5cd6 9f3d 5f4a 0ebe 027a a53d 1c52 443b
000003a0: 6f66 36be 15ce 343d f1d4 31be 3f3a 583d
000003b0: ac58 0d3e c757 3e3e e2dd 3cbe e058 95bd
000003c0: af05 00be 96ee 69be 921b f43d a631 45bd
000003d0: 746a 273e 084f 97bd b0a1 13bd 7f23 0d3e
000003e0: b955 3dbe edc8 05be 9b3d 7d3d 23e7 edbc
000003f0: f73b bebb 7280 6b3d 2da1 0abd 906b f7bd
0.17074257 -0.08709925 -0.13377115 0.08210018 0.20852149 -0.14366524 -0.1119426 0.0007539427
-0.018974112 0.12260662 0.10766064 -0.22485507 0.2682649 -0.065594435 -0.004183537 0.120857134
0.23707838 0.18220003 -0.27335975 0.14293517 0.31180242 -0.16729198 0.055678878 -0.19392481
0.2739792 0.12131724 0.20217413 0.26675853 0.2158332 -0.27349138 0.0041730558 -0.19868453
-0.22528982 -0.14009486 0.14398369 0.24710743 -0.19139478 0.27119294 -0.22634785 -0.2488204
0.23081505 -0.077065185 -0.28369418 -0.21513976 -0.017888859 0.0908095 0.038517024 0.06680665
-0.21270166 0.28172874 0.12847036 0.25240144 -0.14049718 -0.20390956 0.16150314 -0.18606675
-0.15793246 -0.045835726 0.11121558 0.12428133 -0.16445637 -0.0012985676 0.0936127 0.17439002
0.034731004 0.038969055 0.121138275 -0.27930233 -0.03939168 -0.18051708 0.21411978 -0.16565171
0.1428502 -0.19828305 0.14641166 0.09783708 0.16402818 -0.045542452 -0.071265616 -0.010678427
0.19894615 -0.16218048 -0.12054343 0.21835053 -0.2064439 -0.16162501 -0.053791672 0.194696
0.26495814 0.0025058393 -0.039117403 0.008805925 0.0060785413 0.078907244 0.16101716 0.0073569887
-0.16218026 0.21383901 -0.25433218 -0.06986369 0.06752204 -0.0047182264 0.027263317 0.17773771
-0.089243904 0.046786077 -0.04790474 0.07918454 -0.16477686 0.2101214 -0.1767467 0.30761868
0.1799539 0.08520712 -0.16934317 0.07773597 -0.075153515 -0.20220043 0.104191795 -0.054606535
-0.047317516 0.18331993 0.04701235 0.10957571 0.17497757 -0.045476258 0.19049051 0.01663989
-0.07487974 -0.030625584 -0.027294712 0.20072804 -0.048789132 0.0087901605 -0.16820364 0.08377746
-0.056752615 -0.06847121 0.1709761 0.09712585 -0.12864205 0.12798622 -0.04702812 0.2284382
-0.23924789 -0.024714435 -0.22600342 0.2654326 0.28200033 0.2513687 -0.13110627 -0.065573834
-0.008573989 0.12617359 -0.055636905 -0.11715309 -0.020859638 -0.13306192 -0.0052838 0.16725223
-0.140104 0.010306946 0.2878343 -0.13152212 -0.2593299 -0.045890223 0.17515662 0.050975055
-0.13354541 0.016399432 0.04315942 0.24309547 0.020192234 0.0078631835 0.060876857 -0.024306074
-0.2113601 0.1167726 -0.13387385 0.105467774 -0.017692864 -0.14426255 0.18422292 0.09335714
0.21406038 -0.20093758 0.06886387 -0.21335363 0.15550812 0.06417284 -0.11591514 0.04817328
0.1478917 0.10721562 0.15872255 -0.014030657 -0.26109162 -0.18959627 -0.023791121 0.2853057
0.005894146 -0.001452496 0.007905293 0.0028797197 -0.011088798 0.0016869113 0.010802553 0.012705565
-0.0052868444 0.008541059 0.12175877 0.027642524 -0.068888366 0.14160311 0.2435556 -0.21623535
-0.17977522 -0.2573513 -0.022407638 0.14965086 -0.091108896 -0.068288 -0.08294828 0.083861805
0.08104187 -0.08391086 -0.059611008 -0.15595125 0.07804558 -0.13895558 0.08079912 0.0029956168
-0.17812513 0.044141848 -0.17366387 0.052789923 0.13803357 0.18588172 -0.18444017 -0.07292342
-0.12502168 -0.2284492 0.11919321 -0.04814305 0.16349202 -0.07388121 -0.03604287 0.13783072
-0.18489732 -0.13064928 0.06182633 -0.029040879 -0.005805488 0.057495542 -0.033845115 -0.12081063

conv1.lins.2.weight f4 [64, 10]
00000000: 37ef 97bd 6e79 7bbe 564e 2a3e 3622 81bd
00000010: 0884 0dbd 8e20 0ebe 4d19 27be 613b 5a3e
00000020: fb7a 8cbe 5c8f 17be c89f 6ebe 5c48 443e
00000030: d8f0 6ebd 97e2 a0bd 20cf 343e c1db 8b3d
00000040: b94b 43be b601 73bd ac09 793e 095a 353e
00000050: 4e74 0c3e 7229 7f3d 0f0e 1a3d f52f 803e
00000060: 161b 373e 9f26 6abe 2a0b 7e3e 1bcc 7d3e
00000070: 9d33 b33b 420a 0c3d cc42 39bd 8999 6f3e
00000080: 1108 193e 6adf cbbc 9f93 ce3d 0912 00bd
00000090: 3724 d039 10cc 71be 4358 a83d b1e7 2fbd
000000a0: 65cf 923e b254 aebd a73a 843e 2397 ffbd
000000b0: fe98 013d 0dcd 0b3e 3e60 663e 009c 16bc
000000c0: 6ee0 12be b641 3abe fdd5 95be b626 803e
000000d0: b098 0d3e 8bfa de3c 151d 073d 257a a63c
000000e0: 2787 63be 5423 8c3c 383b 80be 944c 143e
000000f0: de7d 583e 694e 293e 4ee3 e5bd 1135 32be
00000100: d624 003e fb87 4abe 4b68 3c3e 81a5 5f3e
00000110: 4378 8fbe 2bce 69be 6efb 87be 4539 64bd
00000120: 7118 0f3e d960 5ebe 59b3 373d f207 2ebb
00000130: 5d5d 3d3e 4d5f 0c3d e0e9 07be 20e5 dcbd
00000140: 7b5f 8bbe 3fb3 23be 5a71 053e ba5f 9a3c
00000150: 288e 723d ad43 86bc 1ab8 363c 11d2 92bc
00000160: 4684 e93d ce74 0e3c 9ebc 4cbe 681d 263e
00000170: ca2b 553d 7edd b83c a8e0 ad3d 5cd7 1ebd
00000180: 4af7 2bbe 36d6 053e a114 bdbd 2f69 7f3c
00000190: 00a7 84be 1ee4 0bbe 8920 423e 2de1 a3bd
000001a0: 3e21 70be 3af7 093d 7bda 37be 3464 0b3e
000001b0: 6f75 7abe 38ee 05bc eb89 9d3b 36e5 8ebd
000001c0: 0506 823e 4042 7a3e 877a 063e 3582 913d
000001d0: ab32 463e 1e91 a3bd 251f 74bd c974 c5bb
000001e0: 33ff 2cbe efd0 953d bdde 443e 7484 ce3d
000001f0: 9364 2d3e 4d9a 58be d206 0fbd df3e 89be
00000200: a10a 923e 5efd 8a3d a620 8f3e 6ea6 993e
00000210: 066a 833e 5a9a a53d b91f fcbd 1a6f 393e
00000220: 5a9a d1bc e723 333e 493a 7dbe 8846 42be
00000230: 7473 9b3e 73c1 273e 2ac6 16be aa33 8abe
00000240: f628 593e f6f6 e9bd 027b 85be e48b 293e
00000250: 9d14 acbc 2181 4cbd fe2e 4b3e a7bd 4cbe
00000260: 7536 52bc 3084 fa3c 0979 eb3b 8784 573d
00000270: 4313 05be 1548 653c bbd2 133e 6e91 aebd
00000280: ec1a 1c3e c63e 84be ffd3 873e 653d 203e
00000290: 56f9 3abe c1d7 dabd 9e56 c83d aad0 cabd
000002a0: 22c4 f93c ae8b febd 2815 16bd eaa4 b1bd
000002b0: 6b42 c83b 5a6a 59bd 78ca 42be b0cb 253d
000002c0: b386 833e ebd2 3e3e 3015 47b9 25cc 36be
000002d0: fd2a 093e 0e22 b1bd 4d0a 803e 38ae 183e
000002e0: e1ea 36bc f22b c93d 4376 40bd 4bbc a33d
000002f0: ffce 80be b772 903c 70fc 2bbe c6f2 90bc
00000300: 2c01 883e 9101 533e adc1 b03b 5156 98bd
00000310: 262f 4a3e 0723 b23d b9ce 11bd 5669 9a3c
00000320: 87a0 973b f6ab 36bb 49d0 313d 4add 943b
00000330: 1cf7 39bc a41c 41bb 3de4 e53b 2602 68bc
00000340: 7edc 22bb bd49 c23b be62 dcbd 8790 0a3d
00000350: b6e6 47be 7b7f 95bd 812d 86be 6870 8b3c
00000360: a0e5 5ebe 23b4 d9bc 6d1a 4b3e 0ee9 03be
00000370: 3578 223e a63c 4c3c 0ea5 013d d7c0 1b3e
00000380: db07 1abd ad9c c9bd c596 3ebe 78d8 153e
00000390: a6a1 2f3e ae00 dc3d dc96 35be 4ada 10be
000003a0: 5744 6b3e d7e8 dcbc ba4e e7bc 9ad5 c13d
000003b0: 174d d73d c973 1ebe 140b e23d f723 22be
000003c0: 77da 5cbd b4a6 8c3e 681d 303d 1ddd 073c
000003d0: 15e9 1ebd e20d 1b3d 7faf 57bd 98e5 39be
000003e0: 2d68 9cbd 2ff7 14be 5f2f ab3c 17e5 48be
000003f0: 42ef f8bb 30fd b5bd 748b e83d d20d 8ebc
-0.074186735 -0.2455804 0.16631445 -0.06305353 -0.034549743 -0.13879606 -0.16318245 0.21311714
-0.27437577 -0.14800781 -0.23303139 0.19168228 -0.058335155 -0.078557186 0.17657137 0.06829024
-0.19071855 -0.059327804 0.24320096 0.17710127 0.13716242 0.062295385 0.037611064 0.25036588
0.17881426 -0.22866295 0.24808946 0.24784891 0.0054687993 0.03418947 -0.045229718 0.23398413
0.14944483 -0.024886806 0.1008675 -0.0312672 0.00039699834 -0.23613 0.082199596 -0.042945568
0.28673854 -0.08512248 0.25825998 -0.12479999 0.031640045 0.1365244 0.22497651 -0.009192467
-0.14343426 -0.18189129 -0.29264823 0.25029534 0.13827777 0.027219078 0.03298672 0.020321915
-0.22219525 0.01710669 -0.2504518 0.14482337 0.21141765 0.16533817 -0.112249956 -0.17403056
0.12514052 -0.19778435 0.1839916 0.21840478 -0.2802144 -0.22832553 -0.26559013 -0.05571868
0.13974167 -0.21716632 0.044848774 -0.0026555029 0.18492647 0.034270573 -0.1327281 -0.107858896
-0.27221283 -0.15986346 0.13031521 0.018844474 0.059217602 -0.016389692 0.011152292 -0.017922433
0.11402182 0.008694841 -0.19993827 0.16222155 0.052043714 0.022566553 0.084901154 -0.0387796
-0.16793552 0.13069996 -0.0923245 0.015589043 -0.2590866 -0.13661239 0.18957724 -0.08001933
-0.23450181 0.03368304 -0.17954437 0.13612443 -0.2445886 -0.008174472 0.004807701 -0.06977312
0.25395218 0.24439335 0.13132678 0.07104913 0.19355266 -0.07986663 -0.059600014 -0.0060258848
-0.16894226 0.073152415 0.19225593 0.10083857 0.16932897 -0.21152611 -0.034918614 -0.2680578
0.28523734 0.06786607 0.27954596 0.30009788 0.25666827 0.08086081 -0.12310738 0.18108788
-0.025586296 0.17494164 -0.24729265 -0.18972218 0.3036152 0.16382389 -0.14724031 -0.26992542
0.21207032 -0.11424057 -0.2607041 0.1655727 -0.021005923 -0.049927834 0.19842145 -0.19994222
-0.012830366 0.03058061 0.0071860594 0.052616622 -0.12995629 0.0139942365 0.14435856 -0.08523832
0.15244645 -0.25829142 0.26528928 0.1564842 -0.18259177 -0.10685683 0.09782146 -0.09903081
0.030489031 -0.124289855 -0.03664127 -0.08674033 0.0061114333 -0.05307994 -0.19022548 0.040477455
0.25688705 0.18635146 -0.00018986012 -0.17851312 0.13395305 -0.086490735 0.2500786 0.14910209
-0.011164398 0.09822835 -0.046987783 0.079948984 -0.25157925 0.017632825 -0.16795516 -0.017693888
0.26563394 0.20606066 0.0053941817 -0.074383385 0.19744548 0.08698087 -0.035597537 0.018849056
0.0046272906 -0.0027873493 0.043411527 0.0045429813 -0.011350419 -0.0029466534 0.0070157335 -0.0141606685
-0.0024850662 0.0059292004 -0.10761021 0.03382924 -0.19521603 -0.072997056 -0.26206592 0.017021373
-0.21767282 -0.026575154 0.198343 -0.12881872 0.15866168 0.012465632 0.03165155 0.15210281
-0.037605148 -0.09844337 -0.18612202 0.14633358 0.17151508 0.10742317 -0.1773333 -0.1414577
0.22975288 -0.026966495 -0.028235782 0.094645694 0.105127506 -0.15473856 0.11037269 -0.15834032
-0.05391928 0.27470934 0.042996794 0.008292464 -0.038796503 0.037855037 -0.0526576 -0.1815399
-0.076370575 -0.14547418 0.020896612 -0.19618641 -0.007596881 -0.08886182 0.113547236 -0.017340574

conv1.lins.3.weight f4 [64, 10]
00000000: 17b3 263e e80b 703c 1d43 413e d28d b43d
00000010: e4cf 793e e22e 9e3d c7da d43d fbfb 8ebd
00000020: 3c86 5ebd aa6a 593d b028 5c3e aebc a23d
00000030: 13cd 053e 46d0 4c3e 1668 f73d 0230 993d
00000040: 55cd cebc bc91 1b3e 8272 1e3e 3fd2 5e3e
00000050: d88e 91be 926d 06bc 4b17 c4bc e8a9 35be
00000060: 38ac 823e 0787 77be 759b 10be 5db7 cd3c
00000070: 2c4a 053e 0962 86bd 1326 e63d 0645 6a3d
00000080: 02fd 48be d0f5 0f3e 0023 c93d d6c7 913d
00000090: 0847 bd3d ab70 b53a d255 b9bd baa3 483e
000000a0: 2f57 00bd 0cfb 89be 2aed 803e 4631 133d
000000b0: 269e 76be 47e0 2e3d 5ff6 6e3e 7d72 abbd
000000c0: 2e89 48be 8372 99bd 2cb0 95bc eb81 053e
000000d0: 08dd 04be f2d4 17bb 5827 c43d a96c aabd
000000e0: 4933 353d e405 463e 68bb 923e 755b 04be
000000f0: 8a74 55be dc5c 143e 72ac c83d 2f8f 73bd
00000100: 1b1a 933d 9493 143e 3fe9 283d 9360 3cbd
00000110: 0434 76be 185e 623d 7a59 8bbe 25fc 123e
00000120: 30f1 a5bd 4cb2 46be 9806 7c3d 1bab d33d
00000130: 12f1 dfbd 1d9e 39be 306f 4ebd e555 683e
00000140: b63d 7d3e f3ec ee3d 3ee0 7ebe c180 e53c
00000150: cbd7 4dbe 359d 3a3d 1b00 7b3d 1e6e 74be
00000160: a4d4 093e 0785 963d 70bb 4e3e 0dd7 07be
00000170: add3 d93d 7cf3 46be 808e 6a3e d334 3e3e
00000180: 452d 40be 0f81 48bc 7a81 7fbd df15 453e
00000190: 0f38 9ebd 72be 6c3e d0e0 833d 2ddf 113e
000001a0: 1d2f 893d 16a6 3cbe 0841 29bc d3e9 453e
000001b0: b170 053e c21c 8cbd 2103 e73d 921d 20bd
000001c0: 4016 a8bb 124a a1bd e363 1a3e 4087 37bc
000001d0: b0c7 7cbe edc1 adbb 2bf1 803e 6cff 3f3e
000001e0: c8bb 4c3e a9a6 32bd 9ef3 333d ba9f 50be
000001f0: 8fd1 673e 0326 2d3e 73f4 99bd 03a8 5e3e
00000200: 9907 6dbe f6ff d2bd bee8 8fbd 35db 863b
00000210: df0d cabb 6754 183e 5ed7 993e 282e 9c3d
00000220: cf60 82bd 70f2 863e a97f 173d d10f 2c3d
00000230: a846 743e 4975 0abc 7ede f03d dda2 0d3c
00000240: 5c3a 163b ccb4 663e 507f 683e 8c3a cf3d
00000250: 81e7 84be b9b2 dcbd e98a e4bc c2b9 083e
00000260: 8336 50bd 7afb 36bd 4511 11be 0311 a83d
00000270: 35c1 5abd 85ef 86bd 347f 06be 995a 64be
00000280: 92fb 39be a567 683e 58cf 93be cdf5 5b3c
00000290: f312 463e 6338 8f3d 189c 98bd 35bf 1b3e
000002a0: f018 b6bb 1093 7c3c 6388 48bd 2a39 8b3c
000002b0: c2f8 3dbe 99c7 8bbe 85c6 2abe 0d35 833d
000002c0: 3a74 0b3e c48d 8e3e 8da3 0fbd 166c 3bbe
000002d0: 5028 923c 330d d3bd 0169 47bd c465 31be
000002e0: 6b92 9bbe 180f f2bd 58de 23be 23c5 5fbd
000002f0: 1f2f cb3d 6200 943e 1786 0a3e 40b6 643e
00000300: cec7 4e3e 67c5 6bbe 0cf8 283e 65ac d6bd
00000310: baf5 cb3d 673f 373e 6d90 dbbd 9d4e 3e3e
00000320: fb67 1a3a 13a0 3cbb 630f 023c 523f 9a3b
00000330: 5c47 db3b 23be 0dbb 4931 ea3b 9ce6 e43b
00000340: f230 3aba b778 ce3b 6f82 e5bd 094c 36be
00000350: 712f 993d abba 37be ace7 11be e166 f23d
00000360: f4fe a8bd d478 ddbc 79fa 493d bfbe 8a3e
00000370: ae7e 4dbe 99f7 113d 30af ebbd 9941 153d
00000380: 8612 a6bd 93ed a2bd 45f2 b2bd 943e ac3c
00000390: c2d0 fcbd 7c72 e03d dc98 18bd a881 023e
000003a0: ee25 93bd e3c7 2dbe 672d 49be 53f9 fc3d
000003b0: bc42 7a3d 754b 443c b492 3d3d 1c46 dfbb
000003c0: 3c01 a6bd 96bd 1d3e b440 64be 610d 3a3e
000003d0: 4b0f 483c 9e75 9ebc ed42 26be b4af 83bd
000003e0: 95d8 5b3e 20d7 d3bd ec32 3bbe 3ef5 273e
000003f0: 5849 3dbe 0dfa e73d 04a8 0fbe 26cf 493d
0.16279255 0.014651276 0.18873258 0.088161126 0.2439571 0.07723786 0.10393291 -0.06981655
-0.054327235 0.05308024 0.21499896 0.07946144 0.13066511 0.20001325 0.120804 0.0747986
-0.025244394 0.15192312 0.15473369 0.2175989 -0.28429294 -0.008204835 -0.023936888 -0.17740595
0.25522017 -0.24172603 -0.14121802 0.025111848 0.13016576 -0.065616675 0.11237731 0.057194732
-0.19627765 0.14058614 0.09821129 0.07118194 0.09242064 0.0013842782 -0.09049572 0.19593707
-0.031333145 -0.26949346 0.25180942 0.035935663 -0.24083766 0.042694356 0.2333617 -0.08371446
-0.1958358 -0.074925445 -0.018272482 0.13037841 -0.12974942 -0.0023167697 0.09577817 -0.083215065
0.044238362 0.19338185 0.28658605 -0.12925513 -0.20845237 0.14488548 0.09798516 -0.059462722
0.071827136 0.14509422 0.041238066 -0.045990538 -0.2404328 0.055265516 -0.27216703 0.14353998
-0.081026435 -0.19403952 0.061529726 0.1033537 -0.109346524 -0.18126722 -0.050399005 0.22689016
0.24730572 0.11666288 -0.24890229 0.028015496 -0.2010185 0.04556008 0.061279397 -0.23870131
0.13460022 0.07349592 0.20188689 -0.13265629 0.10636077 -0.1942882 0.22905922 0.18574838
-0.18767269 -0.012237801 -0.062379338 0.19246624 -0.07725536 0.23119524 0.06439364 0.14245291
0.06698439 -0.18422732 -0.010330446 0.19327478 0.1303127 -0.068414226 0.11279894 -0.0390907
-0.0051296055 -0.07875456 0.15077166 -0.01120168 -0.2468555 -0.005302659 0.25183997 0.1874978
0.19993508 -0.04361597 0.043933503 -0.20373431 0.22638534 0.16909032 -0.07517328 0.21743779
-0.2314743 -0.10302727 -0.07026814 0.004115487 -0.0061662043 0.14875947 0.30047125 0.07625991
-0.06366121 0.2635684 0.03698698 0.04200727 0.23855078 -0.0084508145 0.11761187 0.008644787
0.0022922968 0.22529906 0.22704816 0.10118589 -0.25957873 -0.10776276 -0.027898269 0.13352111
-0.050833236 -0.04467342 -0.14166744 0.0820637 -0.053406913 -0.065886535 -0.13134462 -0.22300185
-0.18162373 0.22695787 -0.28869128 0.013425303 0.19343166 0.06993177 -0.074516475 0.15209658
-0.005557172 0.015415922 -0.048958194 0.016995031 -0.18551925 -0.27300718 -0.16677292 0.06406603
0.13618556 0.27842534 -0.035068084 -0.1830295 0.017841488 -0.10305252 -0.048684124 -0.17323977
-0.30385146 -0.11819285 -0.16002786 -0.054631364 0.09921097 0.28906542 0.13527714 0.22335148
0.20193407 -0.23024522 0.16500872 -0.104821004 0.09958978 0.1789528 -0.107209064 0.18584676
0.0005890128 -0.0028781935 0.007938239 0.0047072554 0.0066918563 -0.0021628223 0.0071469885 0.0069854986
-0.00071026303 0.0063010114 -0.11206519 -0.17802443 0.07479752 -0.17942302 -0.14248532 0.11836029
-0.082517534 -0.027035154 0.049311135 0.27098653 -0.20067856 0.03563652 -0.11508024 0.036439512
-0.08109002 -0.0795547 -0.087376155 0.021025933 -0.12344505 0.10959336 -0.037255153 0.12744772
-0.07184969 -0.16970782 -0.19646226 0.12352242 0.0610988 0.011980881 0.046282485 -0.0068137776
-0.08105704 0.15404353 -0.22290307 0.18169166 0.012210677 -0.019343194 -0.16236468 -0.06429997
0.21469338 -0.10343766 -0.18281144 0.16402146 -0.1848501 0.1132699 -0.14028937 0.049269818

conv2.bias f4 [64]
00000000: f2b9 f73b 2a55 853b 542e a63b 4211 913b
00000010: 7a6b 6638 3337 10bb 60fd 103a 0720 973b
00000020: 00e0 c139 b702 afbb 91f6 a73a 228b 9d3b
00000030: 5d59 803b 7304 2a3b e625 6cba 7328 ca82
00000040: 4471 f73a e66a da82 6abd 2cbb 4de2 5f3a
00000050: da21 953a 5f38 a13b 0330 3db9 78ab c8b9
00000060: ca37 8c3b 105e 553b f5f4 8cbb 0e66 dc3a
00000070: faa0 66bb 1736 2ebb 3d1e 6ebb f6ef b2ba
00000080: 184b 35b9 dda4 05ba 71e8 aa3b d2c4 49ba
00000090: fee4 5f3b 65c6 f6bb 480b ba3b 5ca6 fc3a
000000a0: 71d9 283b 84e3 033b d970 083b 2c3e fe3a
000000b0: 3e58 c239 56d6 f9b9 b39b 203b 78dd 2d3b
000000c0: 0000 0000 be77 38bb a3af 64bb 1b32 473b
000000d0: 38ae a53a d81f e939 060c b53a f45a 083a
000000e0: f6f7 d3ba f02a 063a beb5 053c 5b5e 083b
000000f0: d197 263a 2a93 fe3a 5793 dd3b 3d95 96b9
0.007560008 0.0040689902 0.0050714407 0.004427106 5.493637e-05 -0.0022005558 0.000553092 0.0046119723
0.00036978722 -0.0053409 0.0012814571 0.0048078457 0.003916903 0.0025942593 -0.0009008333 -2.970445e-37
0.001887836 -3.2093578e-37 -0.0026358017 0.00085404963 0.0011377886 0.00492005 -0.0001804233 -0.00038274727
0.0042791115 0.0032557286 -0.004301662 0.0016815083 -0.0035191164 -0.0026582533 -0.0036333941 -0.0013651836
-0.0001728948 -0.0005098114 0.0052156975 -0.000769687 0.003416359 -0.0075309747 0.0056776144 0.0019275653
0.002576437 0.0020124624 0.0020819216 0.0019397191 0.0003706831 -0.00047652674 0.0024506866 0.002652971
0.0 -0.0028147544 -0.0034894727 0.0030394855 0.0012640422 0.0004446495 0.0013812787 0.00052015414
-0.001617192 0.00051180925 0.0081610065 0.0020808193 0.000635502 0.001942252 0.006761949 -0.0002872142

conv2.lins.0.weight f4 [64, 64]
00000000: c8ee 89bb c144 c73d 66c9 ddba b01f 9f3d
00000010: 86df a33d 0a1a a3bc 663a 02bd fce0 b9bb
00000020: dba0 6ebc d5aa 023d af28 bbbb 6a97 85bd
00000030: c2aa 153c 0944 4abd 693a 35bd 6b07 19bb
00000040: 1e50 353c accf 273b eb7e d93d 5f69 9abc
00000050: 21e3 4fba d78b 0d3d 307d 90bc 5bac b9bb
00000060: bb8e bd82 fcf2 1838 df9d d2bd 428f 09bb
00000070: b433 7eba 9e1b e03c f1cd cf3a 0a34 053c
00000080: 89ba 10bc b210 44bd 3b0b 2c3c 5aed 09ba
00000090: 3b3d ba82 82d4 8501 a3dc 2f3d ab71 6d3d
000000a0: fc81 8cbd 3bbe 983d d1d8 a9bd 0ded 9bbc
000000b0: d6d4 ff3b 1788 433d 8f3a d93a 658c 3d3d
000000c0: 334b 8738 87f0 883d aa9a dd3d fe08 cd3c
000000d0: 5e02 88ba d3ca 9e39 e088 83bd 0905 97bd
000000e0: 7273 083d 69d4 183b f9c5 9db8 a68a 96bd
000000f0: 1165 443b b5c9 73bc 99ef e43c c8cd 44bc
00000100: cb5a fbbc 44cf 0abc bde8 09bd 4f8b 6ebd
00000110: 71b0 dd3d 4640 fe3c 683c 993d 71d4 983c
00000120: 43df 1a3d d344 aebd 6096 aebd 7044 96bd
00000130: b030 aebd b3c4 a5bb 6898 06bd 0939 55bc
00000140: 0804 d4bd d1ac d23d c545 c73b 5135 903d
00000150: 43e6 fdbc 7ee8 1fbd 7f8b 0cbd 765c ae3d
00000160: 26e7 44bd 3daf debb b8b4 263d 0577 5fbc
00000170: c464 bb3d fc09 d9bc b07b 343b dbf2 483d
00000180: 4d88 a8bc ed08 95bd bda0 4e3c 19d4 dabd
00000190: edb1 e43c 708e 9a02 83a3 5a3d 83d3 993b
000001a0: c7eb 8b3d 3a22 533d 892a c7bd 105b 9e3c
000001b0: 39eb a9bd 66c2 fb3b 26b6 b2bd e421 033e
000001c0: 9ed7 393d d815 b1bd 0123 14bd 4b1c ccbd
000001d0: 6498 7abd d648 66bc d3a1 b13d 3ea9 12bd
000001e0: 9e8f 023c 1253 473c 1b6f 13bd 52af 383c
000001f0: 7fa0 91bd 08f0 52bd 2a71 e7bd 3496 8abd
00000200: 8cae a3bd db6c ecbd 71c0 b5bd 1356 9ebd
00000210: 3c6f cc3c 80a0 963c 27e2 7c3d 6cf4 233b
00000220: ee10 453d 1316 ecbb 6ec4 cabd b5e6 d3bd
00000230: 9575 cbbd ffc5 413d cef1 2f3c 0287 043d
00000240: ee65 a3bd 738a 313d b584 00bc 448b acbc
00000250: eb12 8ebb 8f12 a53d 6587 8fbc 02ef b9bc
00000260: 9cfd 563d 223a 72bc 7c45 e43d 5a1e 52bb
00000270: 335a a2bb 13bc c7bd b42b 6aba 266e aebc
00000280: d6c6 52bd a7e6 b5bd 4a45 35bd af2b dc3c
00000290: 72c2 2f3d cec2 9e82 0cdf 123d 6a93 fc3c
000002a0: 0432 bbbd 2d01 92bd d1e6 243d 9d6b bebd
000002b0: 192c b13c 7a86 c7bd 62a8 f63c 4528 b43c
000002c0: 13ed 823d 633b df3c 9c02 a33d 66a3 623b
000002d0: 9217 8fbc 139e 1a3d df66 8b3d 388f 4d3d
000002e0: e041 533a 115c 8bbd 9c67 10bd f9aa ccbd
000002f0: 9346 ba3d 2725 12bc 8e7d 4e3d ea2a aa3d
00000300: 2c52 be3d f708 55bc 7d35 f73d 7bee 68bd
00000310: 5bd6 fcbc 9881 943d 91fe be3a b19c b4bb
00000320: 1f6e 36bd 9984 513d c4a7 a7bd e367 7b3d
00000330: 2249 a13d 999f 88bc 6ccb b23c 88ff 52bc
00000340: 8e5f df3c d708 703d 2c2b a03d 0eee 633d
00000350: 68cf e8bb 689a 8dbb 9f9b b8bc 05e1 d03b
00000360: 3ce3 ffbc 24ca 95bc 7e43 583d 0dd2 77bb
00000370: 8185 73bc 5aa2 173d 962b a539 fb46 3fbc
00000380: 8745 92bd 381a b0bd d6a7 8b3d 9481 1c3d
00000390: 1859 37bd 821c 2f80 c21f 953d ccb8 f1bc
000003a0: 3a50 103b f902 0e3d a889 cbbd 6eb5 873d
000003b0: 0e73 22bd be91 6c3d 10ed 31bd eb60 d2bd
000003c0: 915c 38bd 63ce 9dbd f285 d5bd 4d1d 3e3d
000003d0: 3809 dabc e404 ea3c 2e14 d1bc 3827 953d
000003e0: 77a4 c63d 9c77 65bd cea7 f4bc a6d8 c2bd
000003f0: c464 fabc 8713 39bc 51c8 20bd 87b0 cdbc
-0.004209373 0.09729911 -0.0016920983 0.07769716 0.08001618 -0.019909877 -0.031793974 -0.005672572
-0.014564718 0.0319012 -0.005711637 -0.065230206 0.00913495 -0.04938129 -0.044245157 -0.0023350369
0.011066465 0.002560596 0.10619911 -0.018849073 -0.0007930268 0.03455719 -0.017637819 -0.0056662983
-2.7852977e-37 3.646592e-05 -0.10284018 -0.002098993 -0.00096970354 0.027356919 0.0015854222 0.008130083
-0.008833536 -0.047867484 0.010500724 -0.00052615034 -2.7365388e-37 4.916142e-38 0.042935025 0.05796973
-0.0686073 0.074581586 -0.082933076 -0.019033933 0.0078073544 0.047737207 0.0016573238 0.04627647
6.4513086e-05 0.06686502 0.108205155 0.025028702 -0.0010376682 0.00030287224 -0.06422591 -0.07374007
0.033313222 0.0023319966 -7.523219e-05 -0.07350664 0.0029967467 -0.014879634 0.02794628 -0.012011953
-0.030682942 -0.008472268 -0.033669222 -0.058238324 0.10824669 0.031036507 0.07482225 0.018655987
0.037810575 -0.08509221 -0.085247755 -0.07337272 -0.0850538 -0.0050588488 -0.03286019 -0.0130140865
-0.103523314 0.10286868 0.006081315 0.07041419 -0.030993586 -0.03904008 -0.03431272 0.08513729
-0.048072003 -0.0067957924 0.04069969 -0.013639216 0.09150079 -0.026494019 0.0027539544 0.04905973
-0.020572806 -0.07277093 0.012611565 -0.10684986 0.027916873 2.2710021e-37 0.053378593 0.0046944036
0.0683208 0.051546313 -0.0972491 0.019330531 -0.08296818 0.007683086 -0.08726148 0.12805897
0.045371644 -0.086467445 -0.036166195 -0.09966334 -0.061180487 -0.014055451 0.08673444 -0.035805933
0.007968811 0.012165802 -0.03599463 0.011272268 -0.0711069 -0.051498443 -0.11300881 -0.0676693
-0.079922765 -0.115442 -0.08874596 -0.07731261 0.024955384 0.01838708 0.061739113 0.0025017513
0.04811185 -0.00720478 -0.09900747 -0.10346738 -0.09934536 0.047307964 0.010738803 0.032355316
-0.07978426 0.043344926 -0.00784414 -0.0210625 -0.0043357513 0.080601804 -0.017520616 -0.022696976
0.052487954 -0.014784368 0.111460656 -0.0032061548 -0.0049546002 -0.09752669 -0.0008932904 -0.021292757
-0.051459156 -0.08881884 -0.044255532 0.026876299 0.042910047 -2.3327826e-37 0.035857245 0.030832011
-0.09140399 -0.071291305 0.040259186 -0.09297869 0.021627473 -0.09742446 0.030109588 0.021991858
0.063928746 0.027249997 0.07959482 0.0034582256 -0.017467294 0.037748408 0.068067305 0.050185412
0.00080588274 -0.0680467 -0.03525506 -0.09993548 0.09095492 -0.008919991 0.050412707 0.083089665
0.09293017 -0.013002626 0.12070749 -0.056868058 -0.030863931 0.072512805 0.0014571716 -0.005511843
-0.044538613 0.051151846 -0.08186296 0.06137837 0.07875277 -0.016677665 0.021825515 -0.012878306
0.027267244 0.05860218 0.078207344 0.05564695 -0.007104803 -0.004321385 -0.022535143 0.0063744807
-0.031236283 -0.018284865 0.05279874 -0.003781441 -0.014863373 0.037020065 0.00031503726 -0.011674638
-0.071421675 -0.08598751 0.068191215 0.038209513 -0.0447627 -4.326495e-39 0.07281448 -0.029507063
0.0022020475 0.034670804 -0.09938365 0.06626402 -0.039660506 0.057756178 -0.04343897 -0.10272392
-0.045010153 -0.07705381 -0.10425939 0.046414662 -0.026615724 0.028566785 -0.025522318 0.07282871
0.09699338 -0.05602227 -0.029865172 -0.09513979 -0.030565627 -0.01129616 -0.039253537 -0.025108589

conv2.lins.1.weight f4 [64, 64]
00000000: d970 cdbd 995b 543d 7ac5 953d ace6 edbc
00000010: 6570 353d 59f7 56bd 14a2 c7bc ed09 1c3c
00000020: 8908 3a3d 5746 14bd 9bba dd3b 3dd9 743d
00000030: 06f2 653d 27b7 c23d 2cc3 b33d cb91 a6bb
00000040: 487b a03d bd39 01bd c23f d23d 96ec af3d
00000050: 7537 8438 fe93 c63c 443e 6a3b 23f8 173c
00000060: 0e40 bf02 24be bbba 75fb ea3d 4291 20ba
00000070: c063 8c3b bfd9 86bd 0615 d73a e25e 27bc
00000080: 6e77 293d 7d4d 923d cdf6 c13d e74e 4fb9
00000090: cd30 c582 8053 6e01 cbd5 93bd 0553 833c
000000a0: 1b8a 02bd 6c1f 79bd 1993 35bb a2ff 763d
000000b0: 55f3 e93b d234 35bd 24a7 1cbd 6381 493d
000000c0: 875e b8b7 0b3b 21bd 8346 febc 6577 d7bc
000000d0: ea57 9eba 69e3 a538 57d9 953d 0114 d7bd
000000e0: 33a0 ce3b 9884 f73c 2db0 b5b9 c4ed 52bd
000000f0: 594c 95bd d635 d13b 09f8 1f3d f58f ec3c
00000100: 0b53 73bd 2b97 f5bb 5d27 5d3d c7e5 1dbc
00000110: a457 47bd 7fa3 bebd da14 413d 655f f8bc
00000120: d9d5 43bd 74e7 1abd 333e c6bd 5e84 b9bc
00000130: 6959 e63d 79ff 36bd 7086 b2bc 2962 283d
00000140: df9a 6a3d 3558 42bd 18b5 c1bc bb30 91bc
00000150: 02c8 fcbc 7d12 0a3d 9080 80bc 9952 c33b
00000160: 53c9 61bd 6e7e 9ebc 2805 8f3b 728e 55bc
00000170: f9fb d1bc b828 3bbd f2ab 3d3b 215c 86bd
00000180: 799a c0bb 4f40 f83d 8fa0 d63d f66d d0bd
00000190: 44e6 e9bc a4fb 9e02 39ba f6bc de6b 23bd
000001a0: dd4a 4e3d 51c3 d73d d385 aa3d b10a 5fbd
000001b0: be04 dbbd afc3 8f3d e89f 47bd 0375 aabc
000001c0: 813c 433d 3a00 8d3d ddda f4bd f5a5 8ebb
000001d0: 6110 75bd cb49 5ebd 7666 253c e498 c73d
000001e0: d6cb 093d 5ec3 e63c c6df a9bc 95d8 9d3c
000001f0: 64c0 c53d c3ec 70bd d348 ae3d dfa0 dd3d
00000200: 530e b13d 95c3 dc3d 6070 2c3d 520b a9bd
00000210: caa2 e63d 5626 54bd 8453 9dbd 513d f73b
00000220: 793b d7ba 7ece 1f3d f82d aa3c 5e17 c33c
00000230: 9bdd 563c 499d 32bd a4d4 ebbd b103 283b
00000240: 3c16 09bc 3bf0 acbd 7fd9 33bc 0737 18ba
00000250: 08a7 9cbb c3c7 2f3d 62a6 6cbc 7845 a83c
00000260: 720e 943d 7f12 c6bb b387 653d 74a2 29bb
00000270: 6d06 343d c185 b4bc 4fff a8ba e7a1 89bc
00000280: f7ec efbb 0f56 abbd 892e ba3d 7bb8 3e3d
00000290: 5583 e739 8ffa a582 5626 c4bd 2134 613c
000002a0: 98d3 923d 9b99 ea3c 8a8f 303d 961f 483c
000002b0: cbd8 31bd b224 d8bc 012b 5f3d b2dc e43d
000002c0: 2af5 95bd 95ed 8a3d eeda 443d 12ee 4d3d
000002d0: f68b 99bc 3728 e13a bf82 e1bd a6fc e1bd
000002e0: db6f 88bc 5605 1c3d ceee ffbb f292 9bbd
000002f0: 50ae a23d fca0 4fbc 525b 513d ee69 9f3d
00000300: 7125 d9bd a184 cd3d 1740 2d3d a899 c1bd
00000310: 5c70 9eba a35d a83d 37d5 c4bd bf4a 60bc
00000320: 9cb1 903d dc49 953d 2bbf 23bc e8fb d13c
00000330: 3d16 cf3d 252c e8bd 86d7 c1bd c57e ffb9
00000340: 9eaf 8f3b f1f9 8bbb cbef cb3d d2de 74bd
00000350: 6070 e4bb df1e 23bd ec9e 84bc 7053 fbbb
00000360: 8f61 8fbd cf13 70bc f654 c03d f443 6abb
00000370: 8f63 cebb 187c ba3c e114 833a b634 12bd
00000380: 0d86 29bd 619b 88bd e76e 943d f7eb bebd
00000390: bae6 2a3d d20e 3600 f0a9 e33c e4b5 efbc
000003a0: 37e0 b03d 0717 54bd 8b7e a33b 2140 563d
000003b0: 2c7a 623c adf3 f93d 377b 95bd d3e0 bebd
000003c0: c1e8 5c3d c38e 95bd 2509 eb3d 54c2 03bd
000003d0: 96f4 e0bc 9af0 b3bc b568 a83d f7ed bc3d
000003e0: aba4 883d ff58 073d 43ac d7bc 245e e9bc
000003f0: 7d01 6bbd 42d4 bcbc 2652 6abd fdc6 a83d
-0.100312896 0.051845167 0.07313056 -0.029040657 0.04429664 -0.052481983 -0.024369277 0.009523851
0.045418296 -0.036199894 0.00676663 0.059777487 0.056139015 0.0950759 0.087774605 -0.005083298
0.07836014 -0.031549204 0.10266067 0.08590047 6.30458e-05 0.02424049 0.003574268 0.009275469
2.8101693e-37 -0.0014323634 0.11473743 -0.0006125161 0.004284352 -0.065845005 0.0016409464 -0.010215493
0.041373663 0.07143686 0.09470902 -0.00019770452 -2.8974559e-37 4.3773604e-38 -0.07218512 0.016030798
-0.03186999 -0.06082098 -0.0027706085 0.060302384 0.007139603 -0.044239827 -0.038245335 0.04919566
-2.1978527e-05 -0.03936295 -0.031039482 -0.026302049 -0.0012080644 7.9101716e-05 0.07316845 -0.10501862
0.0063057183 0.030214593 -0.0003465427 -0.051496282 -0.07289953 0.0063845916 0.039054904 0.028877238
-0.059405368 -0.0074948273 0.053992618 -0.009637303 -0.048667565 -0.09308528 0.047139026 -0.030318925
-0.047811363 -0.037818387 -0.09679832 -0.022646125 0.112475224 -0.04467723 -0.02179262 0.041109238
0.057276603 -0.047447402 -0.023645923 -0.017723432 -0.03085709 0.033709038 -0.015686303 0.005960774
-0.05512364 -0.019347396 0.0043646283 -0.01303445 -0.025632845 -0.04569313 0.0028941599 -0.06560541
-0.0058777896 0.12121641 0.10479843 -0.101772234 -0.028552182 2.3360448e-37 -0.030118095 -0.039897792
0.050364364 0.105353005 0.08326306 -0.054453555 -0.10694264 0.070197456 -0.048736483 -0.020807749
0.047665123 0.06884809 -0.11955807 -0.0043532797 -0.059830073 -0.054269593 0.010095229 0.097459584
0.03364166 0.02816933 -0.020736586 0.019268313 0.09655836 -0.058819544 0.08509984 0.10821699
0.0864531 0.10779492 0.042099357 -0.08254112 0.11261518 -0.051794372 -0.07681945 0.0075451513
-0.0016420922 0.039015286 0.020773873 0.023814853 0.013114358 -0.04360703 -0.11515167 0.0025636966
-0.0083671175 -0.08444258 -0.010977148 -0.00058065396 -0.004780654 0.042915117 -0.014443966 0.020540938
0.07229318 -0.0060446854 0.056037616 -0.0025884183 0.04395144 -0.022036435 -0.0012893471 -0.016800834
-0.0073219496 -0.08366024 0.09090907 0.046562653 0.00044157603 -2.4388385e-37 -0.095776245 0.013745339
0.071692646 0.028637698 0.04310564 0.012214562 -0.04341964 -0.026384685 0.05448437 0.11174907
-0.07322152 0.067835964 0.04806035 0.05027587 -0.018743496 0.0017178123 -0.11011266 -0.11034517
-0.0166549 0.038091026 -0.00781045 -0.07596387 0.07943404 -0.012672659 0.05111248 0.07783876
-0.106028445 0.100350626 0.04229745 -0.09453136 -0.0012087929 0.08220985 -0.0961098 -0.013689696
0.07065126 0.07289478 -0.009994308 0.025632814 0.101116635 -0.11336545 -0.09464936 -0.0004873184
0.004384949 -0.0042717387 0.09957846 -0.05978281 -0.006971404 -0.039824363 -0.016189061 -0.0076698586
-0.0700103 -0.01465316 0.09391205 -0.003574607 -0.0062984894 0.02276425 0.0010000729 -0.0356948
-0.041387606 -0.06670261 0.072477154 -0.093223505 0.041723944 4.964433e-39 0.027790993 -0.029261537
0.086365156 -0.051779773 0.0049894503 0.05230725 0.013823073 0.122046806 -0.07298892 -0.093202256
0.05393291 -0.0730262 0.114763536 -0.032167748 -0.027460378 -0.021965314 0.08223096 0.09225076
0.06672033 0.033043858 -0.026327258 -0.028487273 -0.057374466 -0.023050431 -0.05720725 0.08241079

conv2.lins.2.weight f4 [64, 64]
00000000: e81c 4dbd 4120 a3bd 7ff3 673d 51a6 ec3c
00000010: fd2c bfbc a7f7 dbbc e4a6 cabc 75eb fb3b
00000020: f3f2 7b3d c334 903c 4b1e a03b ccbe 873c
00000030: c824 a0bd 3473 bdbd 3dd4 853d 68fd a0bb
00000040: 88d1 963d 8450 45bc 6451 6d3d 12c0 53bd
00000050: c3e0 09b6 194d d13c acc8 0fba 2289 8e3c
00000060: 91a2 c002 f276 9eba 0d36 77bd 3be4 40ba
00000070: 836d 613b e236 393d c551 dc3a 307e 43bc
00000080: dd4c 8ebc 615d 023d 8a82 083d 8bb8 02b9
00000090: 714b ac02 9001 d501 9f15 9f3d 61f0 723b
000000a0: bdab 6fbd ceac aabd 7411 26bd 35f5 80bd
000000b0: 3096 03bc e1e8 b4ba 700d de3c fc2b 6abd
000000c0: 3087 5eb7 676c 15bb 2950 c33b 6715 a13c
000000d0: 17f8 aaba 678e bd38 73b5 9fbd e66b 053d
000000e0: c274 cfbd 0617 833c ea7f bcb9 e171 123d
000000f0: 5b08 323d a09c df3b b2d0 1ebd 4a6e 2dbd
00000100: c183 71bd 5635 a9bd 118e 543c c823 3e3c
00000110: 6a9d 3dbd 62b8 3b3d 075f ad3d 1faa 243d
00000120: 3d0d 8dbd dd9a 303d e5ff e83b d8d5 6e3d
00000130: 02df 643d 68b1 4dbd 7625 ac3d 70d7 303d
00000140: a0ea a43d 8dde a8bd 8e73 b83d e477 a4ba
00000150: 1ee2 fcbc fa78 05bd ac58 e3bc 0374 f53a
00000160: f103 763d 6812 38bd e3b1 91bd 2cfd 56bc
00000170: 9d71 4a3d e146 77bd 364b 3d3b 1db3 363d
00000180: 268c 1cbc e1dc 32bc 152b adbd 9997 dbbd
00000190: dc81 e6bc a083 8d02 7200 b73d 2b45 2b3d
000001a0: 507f c2bb 926c 26bd 5b0f 7c3d 1b13 c03d
000001b0: 291d 223c 3a9c cd3d a5d2 96bd 81e3 373d
000001c0: e8c0 39bd 8c62 41bd fcf2 bfbd d185 7eba
000001d0: f4a7 80bd d086 ad3b fb2e 75bd 7cdc a73d
000001e0: 81cc aa3d c482 52bd 3e42 bebc 9012 043d
000001f0: 3b29 44bd 1f3a 82bd b2d9 923d 1b7b 9c3d
00000200: d798 c53d 088b cebd 0623 c13d caea 573b
00000210: 6dd1 b2bc 47e9 353d 5014 543d 044f 4bbc
00000220: 2d9c a63a 2ef7 c0bc a087 c23c 9ddf 823d
00000230: 19ab 493d b473 b53c 0052 18bc f554 a83c
00000240: 524b 223d 767f 8d3c e383 1dbd 425e c6bd
00000250: 7665 9abb 08d3 f3bc 7cf9 68bc 56d4 f73a
00000260: 1646 a13d 04f0 3abc 6678 70bc b84a 2bbb
00000270: d0e9 193d ad80 813c bbde 9cba 8147 1b3d
00000280: 179c 97bc 4df8 f53c 24e2 ee3d d7df 153d
00000290: c117 b4bd 00de b482 c477 b0bd 0592 30bd
000002a0: 6dba 60bd d14a 813d 0f0b ae3d f508 b63d
000002b0: 1eb8 0a3b 3f00 553d f634 053d 15a3 8d3d
000002c0: 2bca 86bd 5a00 d63d 12a0 4e3c 94cf 7d3d
000002d0: dbcd 98bc aa4b 94bd 50de 123d 9e46 d93d
000002e0: b722 81bd b877 473c b3dc 1b3c e1c7 98bd
000002f0: 3949 92bd 87f8 32bc e993 cebc 88e6 3f3d
00000300: 6c57 223c 018f f3bc 47e4 02bd 2997 c53c
00000310: 6b30 9ebd f941 b43d 347d 023d c25f 4abb
00000320: 2500 00bd 37fc 00bd d261 a33c 27f6 a2bd
00000330: 6eb1 7a3d c874 cfbb 8e84 8dbd 9fe8 60bb
00000340: c276 a13b 666d c63d 9e0a 34bd 0390 d8bc
00000350: 9805 e6bb fee1 1cbd de33 99bc 92f0 87bc
00000360: 418a e5ba d5b8 a8bc 7a9e dc3c 1266 6cbb
00000370: ed64 e73c 1d83 45bd e2ad 6c3a 9287 e23c
00000380: 84cd 25bd 8e23 ba3b 21b0 623d bede 30bc
00000390: 8a2a 5a3c fcb9 5300 d1a8 d73d 2347 47bd
000003a0: 8214 56bd 8bea b83d 6be6 ffbc 7ea5 823d
000003b0: 6b5d 6f3b b841 e3bc 7d21 27bd 89b9 913d
000003c0: 0127 a2bd a4f0 b33c a84e a1bd 0e41 b73c
000003d0: 27cd dfbc 794b 3fbd 4a36 933d 28e6 e4bd
000003e0: 2547 cabd 3e51 28bc 6d3f 13bd deef e43c
000003f0: d667 c9bc f466 a4bb c4ef 153d ecc0 cd3d
-0.050076395 -0.07965136 0.0566287 0.0288879 -0.023336882 -0.026851488 -0.024737783 0.007687981
0.06151099 0.017603284 0.0048864237 0.016570471 -0.078195155 -0.09250489 0.06534622 -0.004913021
0.07364184 -0.012043122 0.05793895 -0.051696844 -2.054542e-06 0.025549458 -0.00054849195 0.017399374
2.8305173e-37 -0.0012089892 -0.06035428 -0.0007358228 0.003439755 0.045218356 0.0016809037 -0.011931941
-0.017370636 0.031827334 0.033327617 -0.00012466514 2.531643e-37 7.8246085e-38 0.07767796 0.0037069547
-0.05851339 -0.08333741 -0.04054399 -0.062967695 -0.008031413 -0.0013802313 0.027106017 -0.057170853
-1.3263707e-05 -0.0022800209 0.0059604836 0.019663526 -0.0013043907 9.038747e-05 -0.077982806 0.032573603
-0.10129692 0.01600219 -0.00035953458 0.035753135 0.043465 0.006824091 -0.038773246 -0.042341508
-0.05896354 -0.08262126 0.012973324 0.011605211 -0.0462927 0.045830138 0.08465391 0.040201303
-0.068872906 0.04311644 0.007110583 0.058309406 0.05587674 -0.050218016 0.084055826 0.043174207
0.08052564 -0.08245573 0.09006415 -0.0012547937 -0.03086954 -0.032586075 -0.027752243 0.0018726591
0.060062353 -0.04493943 -0.07114007 -0.013121884 0.049424756 -0.06037033 0.002888394 0.04460441
-0.009554898 -0.010916919 -0.08455483 -0.10722274 -0.028138094 2.0793637e-37 0.08935632 0.04181401
-0.005935587 -0.040630884 0.06153808 0.09378644 0.009894648 0.100395635 -0.07364396 0.0448947
-0.045349985 -0.047213122 -0.093725175 -0.0009709271 -0.062820345 0.005295612 -0.059859257 0.08196351
0.08339787 -0.05139424 -0.023224946 0.032244265 -0.047890883 -0.06358742 0.07170428 0.07640668
0.096482925 -0.10085112 0.09430508 0.0032946342 -0.021828378 0.044411924 0.051777184 -0.0124089755
0.0012711339 -0.023555364 0.023746312 0.06390307 0.049235437 0.022149898 -0.009296894 0.020548323
0.039622612 0.017272692 -0.038455855 -0.09685947 -0.004711802 -0.029763713 -0.014219638 0.0018907886
0.07874696 -0.011409763 -0.014677143 -0.0026137065 0.037576497 0.015808428 -0.0011968234 0.03790999
-0.018507047 0.030025626 0.11664227 0.036590423 -0.08793593 -2.6576045e-37 -0.086165935 -0.043108005
-0.05486529 0.06313098 0.08498203 0.08888427 0.0021166871 0.052002188 0.03252121 0.06915871
-0.06581529 0.10449286 0.012611406 0.06196554 -0.018652847 -0.07240994 0.035856545 0.10609172
-0.063054495 0.012174539 0.009513068 -0.07459999 -0.07142872 -0.010923511 -0.025217013 0.04685071
0.009908538 -0.029731276 -0.031955983 0.02411993 -0.07724079 0.08801646 0.031857684 -0.003087983
-0.031250138 -0.03149053 0.019944105 -0.07957106 0.061204366 -0.00633106 -0.069100484 -0.003431834
0.004927487 0.09688835 -0.043955438 -0.026435858 -0.00701971 -0.03830146 -0.01870149 -0.016594205
-0.0017512516 -0.020595947 0.026931036 -0.003607158 0.028246367 -0.048220742 0.0009028596 0.027652536
-0.040479198 0.005680508 0.05534375 -0.010795293 0.013315806 7.689065e-39 0.10530246 -0.048651826
-0.05226565 0.090291105 -0.031237802 0.063792214 0.0036524187 -0.027741298 -0.04080342 0.07115466
-0.07917596 0.021965332 -0.078763306 0.022369888 -0.027319504 -0.046702836 0.07188089 -0.11176711
-0.09876851 -0.010273276 -0.03594916 0.027946409 -0.024585646 -0.005017156 0.03660561 0.100465626
